saved_models_idun/decoder-ElectricDevices.ckpt (torch, 883014 bytes, 41 tensors)

decoder.0.0.convs.1.weight f4 [64, 64, 3, 3]
00000000: 65b0 30bd b76c 36bd ff22 48bc 2868 0e3d
00000010: 032f 8d3b 2fde bf3c 3b6d 053d bdab 10bd
00000020: 3f4c 383d 4070 203b 7a7e 3abd 33ae a6bb
00000030: 0de4 573c 7cce 39bd 9244 19bd 002f 223d
00000040: 33dd 13bd dbab 6fbc dae1 93bc 5ad1 0e3b
00000050: 4ec6 a9bc 8abc eb3c 24d2 12bd bb3a 573c
00000060: b7e0 01bd 5a9f b23c a23e d83b 8ce1 18bb
00000070: 7c38 a3bc b349 34bd 8835 9aba 1bad d83c
00000080: cc49 5b3b 2c38 2fbc 5696 0d3d a378 c3b8
00000090: 70a6 033d cd5b 20bd 980c 29bc fbde 5a3c
000000a0: 45a9 c1bb ce3a ecbc 76f4 07bd faa4 883c
000000b0: 2d18 483c a05a 42bd c81d 893c c69f 53bc
000000c0: 0c86 373d efd6 1a3c b28d e3bc 5cab 233d
000000d0: 4a30 bc3b ec0b e2bc ab1a 853c 4193 05b9
000000e0: ea67 f63c 3fdd 05bd 2e8c e13b 5ba9 2a3c
000000f0: 8d88 343d f03c 733c c7aa 4c3c 217b 6c3c
00000100: acf9 6f3a 97f6 debc 8772 53bd be90 9fbb
00000110: 157c 26bd d295 893b ff13 933c 53c0 a73c
00000120: 0cea acbc 9e52 a13b fb52 a93c 207b c63c
00000130: 8bdb 0ebc 94f1 793c 195d 0dbc d21e d23c
00000140: 9bf4 b9bc 2821 b0bc 8d90 3dbd 4cc7 9f3c
00000150: 44e4 7fbc d422 103d 929d 023d a160 a2bc
00000160: 1cd4 c73c b7ad e93b b36c eb3c b7c1 b5bc
00000170: ae81 f73c fa27 263d 7f8d 593c d473 f9bc
00000180: d2fb 6fbb 5c5d 17bd 5c7a 0cbd 9a09 053d
00000190: 9a7a 0c3c 4687 96bb e085 4e3c 7bc2 fcbc
000001a0: 883c 64bb 4dd6 063d 91cc bdbc b9e7 923c
000001b0: d9c1 c7bc 3c03 0ebc 857e 313c cd59 0a3d
000001c0: 10ae 17bd a0c9 ef3c 4291 5d3d 3c33 8f3c
000001d0: bf77 adbc 6464 4e3c b470 e13c 6568 dfbc
000001e0: a918 98bc 5611 893b eb1c 07bb 0213 7e3c
000001f0: 4c1f 60bb 3211 b0bc eb1d 6fbb 6e6d 2bbd
00000200: 9ea1 52bd d642 3abc 142c 14bb 990f 933b
00000210: c40a 27bc 643e cbbc f629 70bb 9573 aa3b
00000220: 8d1e 25bd e4c0 41bd b140 e7bb 408c d63c
00000230: 0255 d1bc cf07 9f3c fbf8 c83c 3a05 19bd
00000240: 3fb0 aabc e61a 48bd a71c c63c 3955 2bbc
00000250: 09f4 9d3b c92f 6b3d 6427 40bd bcea d3bc
00000260: 803d 0fbd 3907 a23c 880d ebbb 6242 143b
00000270: c5f9 0c3d 4c3b e43c b69d 27bd 0917 173b
00000280: e5e5 2fbc b648 0d3d ad87 f1ba 49c6 b03c
00000290: 3b9c 31bd 5364 03bd 86f9 27bd 2f35 43bc
000002a0: b76c aa3b 76e8 933c a953 823c 5cbc 35bd
000002b0: 399a 54bc faee 40bd a942 cf3c 1aa2 28bd
000002c0: a0ee b5bc b2a7 8b3c 0e14 c13c 1494 283c
000002d0: 8881 323c dfae bdbc 381d 34bd 6bba f5ba
000002e0: adf9 b63c 4869 a1bc f2e0 87bc 4310 f43c
000002f0: 4a51 39bc e201 08bd cfd1 0abd 6d6f 0d3d
00000300: a16c 3bbd ebee 8ebc 1c5a 7f3b 04af 0fbc
00000310: 358e 9cbc 7b30 0c3d 9fa7 40bc abb8 9bbc
00000320: bd11 e13c fcc7 17bb f29a f5bb f941 afbb
00000330: 6cff 5ebc d50c 1a3d 9081 ce3c 2902 fa3c
00000340: ad69 d3bc c1e1 f73c 27b5 e5bc c5ad fc3c
00000350: 7574 1fbd bc05 fe3b 1cf0 9d3c 98dd ab3c
00000360: ea62 ea3c ab28 33bd 9c18 fcba f459 c1ba
00000370: 1be5 e6bc 81d9 2f3d 5ac3 bbbb e819 e43b
00000380: 7fca de3c d07b 39bd d536 783c 54d3 863b
00000390: a507 1fba bf57 b83b 8b6d c9bc 14f2 0e3d
000003a0: 0164 8c3a 9b3e 6abc 98f2 a8bc 928a babc
000003b0: 4d34 b8bc 94b5 16bd 7c5b 7fbc 8a27 04bd
000003c0: 3999 223d 2bc3 543b e397 1c3d e92b 07bc
000003d0: e4ee 793c 35e8 0d3d 37c1 503c 0330 35bd
000003e0: 35a9 093d 54c0 c0bb ed7d 10bd 75b4 bc39
000003f0: 0117 41bd 3a59 a23c adcf a43a c909 343d
-0.043136973 -0.044537272 -0.012215375 0.0347673 0.0043085827 0.023421375 0.032574873 -0.035320032
0.04499459 0.0024480969 -0.045530774 -0.005086684 0.01317693 -0.045362934 -0.03741891 0.039595604
-0.036099624 -0.014628376 -0.01805203 0.0021792264 -0.020724442 0.028776426 -0.035844937 0.013136561
-0.031708445 0.0218045 0.0065992633 -0.0023327796 -0.019924395 -0.044015598 -0.0011765221 0.02644973
0.0033460734 -0.010694545 0.0345672 -9.320795e-05 0.03214115 -0.039150048 -0.010317944 0.013358827
-0.005910071 -0.028836634 -0.03319212 0.01668023 0.012212795 -0.047449708 0.016737834 -0.012916511
0.04480557 0.009450658 -0.027777527 0.039958343 0.005743061 -0.027593575 0.016248068 -0.00012738725
0.030078847 -0.0326817 0.006883166 0.010416354 0.044075537 0.014846072 0.012491888 0.014433653
0.00091543305 -0.027217193 -0.051622894 -0.0048695495 -0.040645678 0.004198768 0.01795387 0.02047745
-0.021107696 0.004923179 0.020669451 0.024228632 -0.008719335 0.015255351 -0.008628153 0.025649462
-0.022699645 -0.021500185 -0.046280432 0.019504212 -0.015618388 0.035189465 0.031888552 -0.019821467
0.024393134 0.007131304 0.028738355 -0.022187097 0.030213203 0.04056547 0.013278364 -0.030450739
-0.0036618602 -0.03695427 -0.03429638 0.03247986 0.008574152 -0.0045937626 0.0126051605 -0.030854454
-0.0034826118 0.032919217 -0.023168834 0.01793276 -0.024384426 -0.008667763 0.010833387 0.033777047
-0.037031233 0.029270947 0.054093607 0.017480485 -0.021175263 0.012597177 0.027519561 -0.027271459
-0.018566446 0.004182975 -0.0020616602 0.0155074615 -0.0034198342 -0.021492574 -0.0036486338 -0.041852407
-0.05142366 -0.011368474 -0.002260928 0.0044879434 -0.010195438 -0.024810024 -0.0036646104 0.0052017667
-0.04031234 -0.047303095 -0.0070572724 0.026189923 -0.02555323 0.019412903 0.024532786 -0.0373585
-0.020835994 -0.048853777 0.024183584 -0.01045733 0.004820351 0.05741862 -0.046912566 -0.025868766
-0.03497076 0.019778835 -0.007173244 0.0022622575 0.034417886 0.027860306 -0.04092189 0.0023054502
-0.0107359635 0.03449317 -0.0018427275 0.021578925 -0.043361884 -0.0320781 -0.04100945 -0.011914535
0.005200948 0.018055182 0.015909033 -0.044369087 -0.012976223 -0.047102906 0.02530034 -0.041170217
-0.022208512 0.017047737 0.023569133 0.010289211 0.0108951405 -0.023154674 -0.043973178 -0.0018747573
0.022335852 -0.019703522 -0.016586754 0.02979291 -0.011310885 -0.03320492 -0.033891495 0.034530092
-0.045757893 -0.01744791 0.0038963621 -0.008769754 -0.019110778 0.034225922 -0.011758714 -0.019008955
0.027474279 -0.0023159971 -0.0074952776 -0.0053484407 -0.013610702 0.037609894 0.025208265 0.030518608
-0.025807226 0.030259015 -0.028040482 0.030844579 -0.03892942 0.0077521484 0.019279532 0.020979688
0.028611619 -0.043739956 -0.0019233408 -0.001475154 -0.028185418 0.042932037 -0.005730075 0.006961096
0.027196167 -0.045284092 0.015149792 0.0041145477 -0.0006066508 0.0056256945 -0.024588367 0.034898832
0.0010710956 -0.014297153 -0.02062349 -0.022771154 -0.022485876 -0.03679426 -0.015585776 -0.03226427
0.039696906 0.0032464962 0.038230788 -0.008250215 0.01525471 0.034645278 0.0127413785 -0.04423524
0.033608634 -0.0058823023 -0.035276342 0.00035992605 -0.04714108 0.019817937 0.0012574099 0.043954644

decoder.0.0.convs.1.bias f4 [64]
00000000: 59de 9aba f9f9 4d3c c2ad 7b3c 368c 243d
00000010: 33f4 4f3b 779d 293d 4f67 05bd 720d afbc
00000020: a809 cebc 046b 843b be3d 0fbd b1be e9bc
00000030: 8b1e 463d 4c1d 153c b802 32bd 318e ed3a
00000040: ec07 5dbc 16c3 a13b 6a42 4b39 16e0 c73c
00000050: 3302 21bd 9cd1 d4bc 4acd 9dbc b9e5 213b
00000060: be98 033d 1a83 073d 61b7 b33c dfc8 e7bc
00000070: 7026 7f3c d999 c8bc 22ea 5fbb cfe1 fa3a
00000080: 0409 a63c d230 24bb 9fff 7ebc 531b 9fbc
00000090: 574e 2cbd aedb cc3c eb99 1d3d 5c07 06bd
000000a0: 36cb 413d 1c85 803c e36e 333d 5c7b f4bc
000000b0: 5036 67bc 6b62 debc 5062 f2bc cf37 933c
000000c0: 45b2 153d ace7 bf3c c114 77bc 7d71 2b3c
000000d0: f214 b5bc 894b 08bd e89a f63c afdd 0bbc
000000e0: fa51 053c 4b84 98bc d8b9 0cbc 825c 04bd
000000f0: 8c7b c5bc f210 053d 2e91 233b 801b 993c
-0.0011815532 0.012571805 0.015361251 0.040172778 0.0031731247 0.041409936 -0.032569226 -0.021368716
-0.025151089 0.0040410776 -0.03497099 -0.028533312 0.04836897 0.009101223 -0.043459624 0.0018124041
-0.013490658 0.004936586 0.0001938433 0.024398845 -0.039308738 -0.025978856 -0.019262929 0.0024703576
0.03212809 0.033084013 0.021938028 -0.028294025 0.015573129 -0.024487423 -0.0034166654 0.0019140783
0.02026797 -0.0025053513 -0.0155638745 -0.019422209 -0.0420669 0.025007095 0.038476866 -0.032721862
0.047312938 0.015688471 0.04380692 -0.029843979 -0.01411207 -0.027146539 -0.029587895 0.017970948
0.036546964 0.0234259 -0.015080632 0.010464069 -0.022104714 -0.03327516 0.030103162 -0.00853674
0.0081372205 -0.01861777 -0.0085892305 -0.032314785 -0.024106763 0.032486863 0.002495836 0.01868987

decoder.0.0.convs.4.bias f4 [64]
00000000: 6d56 1cbd aec2 9a3d cdfb 983d 89c6 c8bd
00000010: fa09 7ebd 704b 93bc f387 a6bb 6263 8cbd
00000020: 061a c9bd 29a4 dc3c f685 f8bd 2d96 d93d
00000030: 2b1e 843d a13f cf3d a4e5 0d3d e5af 87bd
00000040: d898 99bd b18f ae3d e3e2 733c d109 8cbd
00000050: d5a6 90bd 5d8d e83c 1f1f 0dbc c7aa fa3d
00000060: 2a33 e8bd 3d74 c33d 692b 9abc 896c e3bd
00000070: 94f0 a1bd b01c f0bd 3c70 8c3c 2094 f8bd
00000080: 6080 9ebc 06b4 c0bd b445 fe3d d809 a4bc
00000090: f801 af3d 88e6 8e3d 8dd7 d4bc 8a16 383c
000000a0: 5450 13bd 1793 75bd 77fd a4bd 5ed6 d43d
000000b0: be85 303d 4171 0a3d 32ce 7cbc 888e f7bd
000000c0: b98e 0a3c 61dc cbbd 2bd6 0e3d ad6b c6bd
000000d0: a9ff a23c 8205 a8bd 01ac d53d 8e59 963c
000000e0: e331 cebb a670 2fbd c7fa 71bc 433c 1a3d
000000f0: d9c4 df3d d120 9c3c dbd3 b23b 8b3d cb3d
-0.03816836 0.075566635 0.07469902 -0.098034926 -0.062021233 -0.017980307 -0.0050821244 -0.06854893
-0.09819417 0.026933746 -0.12134926 0.10624347 0.064510666 0.10119558 0.03464283 -0.06625346
-0.07499856 0.08523501 0.014885637 -0.0683781 -0.07063071 0.02838772 -0.008613377 0.122396044
-0.11337884 0.09543655 -0.018819528 -0.11104686 -0.07907215 -0.11724222 0.017143361 -0.121376276
-0.019348323 -0.09409337 0.124156386 -0.020024225 0.085452974 0.06977564 -0.025981689 0.0112358425
-0.03596528 -0.05995473 -0.08056157 0.1039245 0.043096296 0.033799414 -0.01543002 -0.120877326
0.008456879 -0.09954143 0.034872215 -0.09688506 0.019897299 -0.082041755 0.10433198 0.01835325
-0.006292568 -0.04283204 -0.014769263 0.037655126 0.109262176 0.019058617 0.005457384 0.09923848

decoder.0.1.weight f4 [64]
00000000: 3018 7e3f 648f 7d3f 9fe8 7d3f 5b6c 803f
00000010: e863 7e3f 1dbf 813f 4047 813f 932c 7e3f
00000020: 1b7c 813f 4860 803f f1b0 7d3f ec52 7e3f
00000030: 2a64 803f 5e7c 803f 8868 7f3f 7b5c 803f
00000040: ae3a 813f a240 803f e979 803f 39bb 7f3f
00000050: c832 7e3f 9f05 7f3f ae5f 7e3f 504e 7f3f
00000060: 4702 813f 1f25 7d3f a969 803f 55fa 7f3f
00000070: ce62 803f 5f2f 7f3f 8707 7c3f 1939 803f
00000080: 7f2c 803f 836c 803f 7a8d 7f3f 6624 813f
00000090: b60a 7e3f 4c57 803f 21aa 813f 8217 813f
000000a0: 87e1 7d3f 44d8 7d3f 0871 803f d0df 7f3f
000000b0: 18b7 813f f5a7 803f 0f56 7f3f a958 7d3f
000000c0: 957e 803f 206f 7e3f 766c 7b3f 0c33 813f
000000d0: 3679 803f 215f 7d3f 500d 803f 6e4b 803f
000000e0: f8a7 7d3f 3139 803f 6b18 823f a0a6 7f3f
000000f0: 1e89 803f 42fb 7f3f bb5d 7d3f 75ae 813f
0.9925566 0.9904692 0.99183077 1.0033067 0.99371195 1.0136448 1.0099869 0.99286765
1.0115999 1.0029383 0.99098116 0.9934528 1.0030568 1.0037954 0.9976888 1.0028223
1.0096033 1.0019724 1.0037204 0.99895054 0.99296236 0.9961795 0.99364746 0.9972887
1.007882 0.9888477 1.0032245 0.9999135 1.0030153 0.9968166 0.98448986 1.0017425
1.0013579 1.0033115 0.9982525 1.0089233 0.99235094 1.0026641 1.0130044 1.0085299
0.9917225 0.9915812 1.0034494 0.99950886 1.0134001 1.0051256 0.9974069 0.9896341
1.003863 0.99388313 0.98212373 1.0093703 1.0036991 0.9897328 1.0004063 1.0023019
0.99084425 1.0017453 1.0163702 0.99863625 1.0041845 0.99992764 0.98971146 1.0131365

decoder.0.1.bias f4 [64]
00000000: 240e 2abb 0272 f1ba c82e 123a 551a 193c
00000010: a881 21bc c182 8f3c 65c5 523c ce85 46bc
00000020: d54b 73ba c212 e03a 9716 6c3c 9543 983b
00000030: 0d89 9e3c 9c4c 833b 2d37 3c3c f0a3 7c3b
00000040: 8d07 ec3b 1d66 11bc 557e 1c3b 4d1f 8b3c
00000050: 3687 c03c 8f55 8f3b bbc3 64bb 608e a8ba
00000060: 2ae7 acba 381f 1f3c b280 0b3c 5dfe 843a
00000070: 9c38 f33b a02e 7fbb 695e 5a3b 566d ffbb
00000080: 3bab e6b8 fd85 83bc af5f ae3b 7337 813c
00000090: b2b8 b9bb 9b09 f33b bc4f 1f3c 9892 ba3c
000000a0: c377 28bc eeab 77bc c58e a1bb a0b0 0bbc
000000b0: 5d47 af3c a5f7 c43b 63af 05bb 8ea6 413c
000000c0: 9367 243c ee94 dc3a 7bb9 63bc dea9 623b
000000d0: 69a6 db3c ffcd 81bb a540 513b 3270 31bc
000000e0: d3ef bebb fe43 913c 5f42 3b3c db5c 783a
000000f0: 47b1 063c 8d7d 923c fc76 27bc 0c35 b03c
-0.002594837 -0.0018420818 0.0005576429 0.009344657 -0.009857573 0.017518403 0.012864445 -0.012116862
-0.0009281014 0.0017095434 0.014409683 0.0046467283 0.01935246 0.0040069353 0.011487764 0.0038549863
0.0072030486 -0.008874443 0.002387901 0.016982699 0.023501974 0.004374213 -0.0034906704 -0.0012859814
-0.0013191451 0.009712033 0.00851457 0.0010146607 0.00742252 -0.0038937703 0.0033320433 -0.0077950163
-0.00010999149 -0.016055102 0.005321465 0.01577351 -0.0056677694 0.0074169165 0.0097236 0.02277498
-0.01028246 -0.015116675 -0.0049303495 -0.008525997 0.021396333 0.006010967 -0.0020398728 0.011819495
0.01003446 0.0016829052 -0.013899202 0.0034586112 0.026812749 -0.003961324 0.00319294 -0.010829972
-0.005826929 0.017732617 0.011429398 0.0009474286 0.008220977 0.017882133 -0.010221239 0.02150967

decoder.0.1.running_mean f4 [64]
00000000: 8aef 26be 5af6 543d a51a b23e bbb3 82be
00000010: 9d8f b2be 8989 ecbd 1a92 8c3d cea6 81bd
00000020: 5a2b 963d 4ed7 50bc df3f 90bd 6745 fd3d
00000030: 93db bd3d aa43 3e3e 7760 a5bc 27fa d5bd
00000040: a793 003e 9bc0 ce3d ffab b2bd dbb9 1e3d
00000050: 3e36 debc 8c5a 09be bd07 8a3d 2bfa 183e
00000060: d24d 14bd cad1 bdbc 06ed 59be 8744 40be
00000070: 6e44 8d3d d6f6 72bd a832 25be 4e51 e1be
00000080: c8c5 713c 66f5 aabd 0d2b 303e 07ec 8fbd
00000090: cf8f d43d d2cc 183e d7eb 6dbd ba30 99bd
000000a0: da49 39be dc00 343b e4dc 0dbe 1a2e 513e
000000b0: 5e1f acbd f583 83be 2c33 2f3d ed17 43be
000000c0: d846 1a3d 1603 1bbe 2f63 eb3c 2b23 2fbe
000000d0: 482f 663e 1f5f 95be 830d a83d 586f 8fbe
000000e0: 00d0 643d 2af1 afbd 877e a2bd a1a9 a23d
000000f0: a633 843d 64ce 663d e842 8abd fac2 5abc
-0.16302314 0.05199275 0.34785953 -0.25527748 -0.34875193 -0.1154967 0.06863804 -0.063306436
0.073324874 -0.012746645 -0.070434324 0.12366753 0.09270396 0.185805 -0.0201876 -0.104481034
0.12556325 0.1009533 -0.08724212 0.038751464 -0.027125474 -0.13413447 0.06739757 0.14939182
-0.036207028 -0.023171324 -0.21281824 -0.18776141 0.068978176 -0.059317432 -0.16132605 -0.44007343
0.014756627 -0.08347587 0.17203923 -0.070274405 0.10378992 0.14921883 -0.058086243 -0.07479997
-0.18094578 0.0027466333 -0.13853794 0.20427743 -0.0840442 -0.25686613 0.04277341 -0.19052096
0.037665218 -0.15137896 0.028733818 -0.1710326 0.22478974 -0.29174134 0.08205702 -0.28014636
0.055862427 -0.0859092 -0.079342894 0.079425104 0.06455164 0.056349173 -0.067510426 -0.01335215

decoder.0.1.running_var f4 [64]
00000000: bacf cf3e aa87 fa3e 8009 743f cd76 083f
00000010: ebab f63e 45a4 eb3e c42e 103f 9d49 0a3f
00000020: 41bf fe3e 41ee 253f 7d87 423f 03ff 023f
00000030: 93d6 073f 1915 053f 7313 373f bb2d 013f
00000040: 16aa d43e f882 363f 7297 0c3f ed41 f23e
00000050: 75d8 053f 3523 0b3f 9599 2a3f 5bf4 173f
00000060: ba49 093f d79b 153f 93e5 033f 0211 f43e
00000070: 3793 333f d8c9 193f 0e9b c03e 2b3a 4a3f
00000080: abd5 0e3f b835 453f 0225 fd3e 4e7a 4a3f
00000090: e043 373f d5a8 073f 94bd fe3e 7944 033f
000000a0: 6153 243f f0e1 3f3f 5cf8 3a3f 3be2 223f
000000b0: 54c2 e63e bda8 fe3e 8ed0 1c3f 8b71 f53e
000000c0: a114 fc3e 7cb4 d93e 3a79 483f 1a48 a73e
000000d0: 9b44 2f3f d1e2 073f 274f 0b3f c511 f33e
000000e0: 3fde 0b3f ab75 1a3f ab93 133f 6835 153f
000000f0: b327 083f a9b3 e43e 3bec da3e 650d e43e
0.4058817 0.48931628 0.95326996 0.53306276 0.48178038 0.46023765 0.5632136 0.54018575
0.4975529 0.6481667 0.7598799 0.51170367 0.5306179 0.5198532 0.7151405 0.50460404
0.41536015 0.7129359 0.5491859 0.47315922 0.5228341 0.54350597 0.666406 0.5935723
0.5362812 0.5844092 0.5152218 0.47669226 0.7014651 0.60073614 0.37618297 0.7899501
0.5579478 0.77035093 0.49442297 0.7909287 0.71587944 0.5299199 0.49754012 0.51276356
0.64189726 0.7495413 0.73035216 0.6362645 0.45070136 0.49738112 0.6125573 0.4793819
0.4923449 0.4252051 0.7830998 0.32672197 0.6846406 0.5308047 0.5441765 0.47474495
0.54635996 0.603358 0.576472 0.58284616 0.53185576 0.4466832 0.42758355 0.4454147

decoder.1.0.convs.1.weight f4 [64, 64, 3, 3]
00000000: cf36 393d 1481 a13b caed c0bb 43d1 3fbd
00000010: 8734 a83c 116c 29bb 33d7 30bc 7761 b0bc
00000020: 87ca 813c 98c1 743c 7536 89bc 4beb c43c
00000030: a8c1 8e3c fa61 bcbc dfcc 0a3d 8d35 b13c
00000040: 1542 473d 24b3 4b3c 19b6 47bd c359 9b3b
00000050: 00fe 89bc 2b60 06bd 29c0 3a3d dbe3 25bc
00000060: cee2 d33c 348e 433c eddb 14b9 7649 d6bc
00000070: b705 d23c 3b38 b6ba 1079 003d 3ad0 3eba
00000080: 0827 c3bb 54d0 c93c f4ec c93c 8080 9bbc
00000090: f993 b83b 7f96 90bc 07ad 3f3c c1aa 10bd
000000a0: 7309 083b 8339 213c d60f 0fbd 11c8 0f3d
000000b0: 573d cb3b 45eb 053d b2b6 8d3c e1bb 293d
000000c0: e882 243d dffc 233d 8f28 ddbc 7b24 103c
000000d0: fafb efbb 3ac6 633d 62a2 05bd 78d6 af3b
000000e0: c46f aa3c b284 60b9 9e33 b73c 01ad 0c3d
000000f0: f666 9139 cc8f 823c 7fa9 103d cb92 95b9
00000100: 6aed 80bc c12b 0e3b 855e 78bd 6b63 ddbc
00000110: e0a1 093c f75d 1a3d 3704 ab3c 045a 15bd
00000120: 4fe2 67bc 1d2d 183d bfaf b83c 2678 073b
00000130: bf34 183d a5da d0bc eb06 8d3b b660 08bd
00000140: 0fe0 10bc de60 61bc 197b 73bc bd9f 33bd
00000150: b920 ecbb 1332 013c 416b f43b afd0 753c
00000160: 4b6b 2c3d 1a59 8abc ab17 963c e763 383d
00000170: b025 17bd 8e92 d2bc 9314 e4bc ee07 813c
00000180: b31f f93b 6446 023d c574 60bc 1baa 48bc
00000190: 0dc6 52bd f1ac 58bb 4f87 3d3c c056 9abc
000001a0: afe3 913c f29f 2d3d 16e5 243d 7ad3 57bc
000001b0: 9e70 e0bc 7ae9 f4bc 1864 123b d5c1 153b
000001c0: 45a4 fc3c 66d9 8abc a8a0 143d d164 01bd
000001d0: 61d1 513d c211 4fbd 93ad 87bc 98c3 b7bc
000001e0: a1eb 603a 3c78 39bc 415d c53c 9a28 ad3b
000001f0: 9bc9 a43c 1dfe 533d d138 15bc 45fd 5a3c
00000200: f42c 1d3d 9498 fa3c 2f82 393d 31a0 69bc
00000210: 33a2 00bd e08f 2b3d 30ae 333d 100a fa3b
00000220: 2a6b 38bd 5f1e 0bbc 465a 6ebc 8091 4fbb
00000230: c9d3 b3bc 5805 183d 8735 dcbc ca32 d93b
00000240: 9cee 03bc 3556 bc3c 10cf 1a3d 112e 13bd
00000250: 0373 a5bc ca2c f83c 7bb2 ffbc fa81 253d
00000260: 183a 93ba f9bf 2cbd a6ef 80bc 9dcd 03bd
00000270: f857 f63c 4747 8e3b 5a9c 9b3b aa00 da3c
00000280: f8a8 dbba 8aa1 63bc c783 c2bc 0edb 213c
00000290: ed81 07bd 58a9 aa3b 8620 353c 91a8 453d
000002a0: 900f 873c 4d54 873c 6390 e8bc d76a 4d3c
000002b0: 9935 e0b9 a500 aa3c 877b ee3c b815 ea3c
000002c0: 2f71 d23c 725d a63c 5232 6fbb 3aa2 68bc
000002d0: e81c 12bd 646b bb3c cfa4 ea3c b32f a03c
000002e0: 3f03 233d 1231 9ebb e934 e5bc 7078 8c3c
000002f0: 7846 773d 2dc1 363c 4c05 14bd d1e6 ebbc
00000300: 0cbd 27bd 7d45 4b3a 6405 223d dd23 b9bc
00000310: aa83 1e3d c241 7b3c 07ac 59bd 8f85 073d
00000320: 8a19 b73c a65a 1e3d 4b5c ebbb 176e 043a
00000330: 1075 a5bc 8211 b63c dbee 353d 382b 893c
00000340: 3ab8 213d 5683 0f3d f56e 4fbc fb5e 893c
00000350: 056f 8d3a 5959 1cbb 555c 81bc 75db 0e3d
00000360: 6c42 bdb9 0baa 9a3c 2e65 ce3c eda9 82bb
00000370: 5449 f3bb 4530 14bd 0517 d6bc e12f 213d
00000380: 9d35 aabc 86fc a53c ca8d 2ebc 99a7 24bc
00000390: a47d 203c 298a b4bc fd06 e3bb 3aa6 f3bc
000003a0: 30e7 ca3c 4bae 153d 739f e23c 0fad cfbc
000003b0: 42a7 53bc 0512 0cbd 3eb2 3c3d 8cef 98bc
000003c0: b8b9 213d 7569 7b3b 51cf 073d 7589 54bc
000003d0: dd26 52bd 277f 1ebd e90d f0bc 2851 a63c
000003e0: bec4 11bd 26ab 1a3d c9a0 b03c ebf1 8ebc
000003f0: 8b1c d4bc 2618 393c 1188 eaba 430d 4c3d
0.045218285 0.0049287174 -0.0058877217 -0.046830427 0.02053286 -0.0025851766 -0.010793495 -0.02153085
0.015843643 0.0149387345 -0.0167496 0.024037978 0.017426327 -0.022995938 0.033886787 0.02163198
0.048647005 0.012432847 -0.048757646 0.004740925 -0.01684475 -0.032806557 0.045593414 -0.010125126
0.025864985 0.011935759 -0.00014196309 -0.026158076 0.02563749 -0.0013902256 0.031365454 -0.0007278953
-0.0059555806 0.024635471 0.02464912 -0.018982172 0.005632874 -0.017649887 0.011698968 -0.035319094
0.0020757585 0.009840372 -0.03492721 0.035102908 0.0062023806 0.032695074 0.01729903 0.04143894
0.040163904 0.04003608 -0.026996879 0.00879776 -0.007323739 0.055608965 -0.032625563 0.005366143
0.020805247 -0.00021411738 0.02236348 0.034344677 0.00027733267 0.015937708 0.035317894 -0.00028528864
-0.015738208 0.002169356 -0.060637016 -0.027024945 0.00840041 0.037687268 0.020876033 -0.0364628
-0.014153077 0.0371524 0.02254474 0.002067098 0.037159678 -0.025494883 0.004303803 -0.033295356
-0.008842482 -0.013756005 -0.014860892 -0.04385351 -0.0072060493 0.007885474 0.0074590747 0.015003367
0.04209451 -0.01688819 0.018321833 0.04501715 -0.036901176 -0.025704648 -0.027841842 0.015750851
0.007602656 0.03180541 -0.013699715 -0.012247588 -0.051458407 -0.0033062065 0.011567905 -0.018840194
0.017808763 0.042388864 0.040257536 -0.013172979 -0.02739745 -0.029896487 0.0022337493 0.0022851129
0.030840049 -0.016949367 0.036286026 -0.031590287 0.05122507 -0.050554045 -0.016562259 -0.022432134
0.00085800333 -0.01132017 0.024092318 0.005284381 0.020115664 0.051756013 -0.009107784 0.013366048
0.03837295 0.030590333 0.04529017 -0.014259384 -0.031404685 0.041885257 0.04386729 0.007630594
-0.045024075 -0.008491128 -0.01454789 -0.0031672418 -0.021951573 0.03711447 -0.026880993 0.006628369
-0.008052494 0.022990325 0.037795126 -0.035932604 -0.020196443 0.030294795 -0.031213036 0.04040716
-0.0011232523 -0.042175267 -0.015739273 -0.03217851 0.030071244 0.004341993 0.004748863 0.026611645
-0.0016758731 -0.013893494 -0.023744477 0.009878887 -0.03308289 0.0052081756 0.0110551175 0.04825646
0.016486913 0.01651969 -0.028389161 0.01253768 -0.00042764543 0.02075226 0.029111637 0.02857481
0.025688736 0.02030823 -0.00364985 -0.014198834 -0.0356721 0.022878356 0.02864304 0.019553995
0.039798018 -0.004827627 -0.027979331 0.017147273 0.06036994 0.011154455 -0.036137864 -0.028796585
-0.040951774 0.000775419 0.039555922 -0.022600109 0.038699783 0.015335502 -0.053142574 0.033086356
0.022351045 0.038660668 -0.007182633 0.0005051805 -0.020197421 0.022225145 0.044417243 0.016744241
0.039482333 0.03503736 -0.012660732 0.016768923 0.0010790533 -0.0023856966 -0.015791098 0.03487726
-0.00036098377 0.01887991 0.02519473 -0.003987542 -0.007424513 -0.036178846 -0.026134023 0.0393523
-0.020777518 0.020262014 -0.010653922 -0.010049724 0.00979558 -0.022038536 -0.0069283233 -0.029742349
0.024768442 0.03654317 0.027663922 -0.025351075 -0.012918295 -0.034196872 0.046068422 -0.018668912
0.039483756 0.0038362418 0.033156697 -0.012972225 -0.051306594 -0.03869548 -0.029303508 0.02030237
-0.03558802 0.037760876 0.021561043 -0.01744934 -0.025892517 0.011297261 -0.0017893334 0.049817335

decoder.1.0.convs.1.bias f4 [64]
00000000: 1118 bd3b 1bac 4f3c 8c18 ec3c 252b a63c
00000010: f4c1 1fbd ebe6 b5bc 2096 14bd a419 503d
00000020: 0b30 e63c ac6b a4bc 2a97 a7bc eb38 913c
00000030: 1773 c0bc c392 06bd 7253 12ba 6bd4 22bd
00000040: 03b0 d53c e9b1 363d 94bc 833c 3eb0 fa3c
00000050: fb64 6dbc 4578 53bc 9361 8bbc b7ed 253d
00000060: 0987 1e3d 0854 10bd d5d8 c83c 1bba c53b
00000070: 0a8f 873c 559f c6bc e47b efbc 2906 bf3c
00000080: 4658 4f3a a7c1 153d 5806 a4bc 7425 313c
00000090: dec1 e33c 24e3 123d 06f2 e83c ad88 a6bc
000000a0: f387 5e3c 0c5e 9dbb d84c dd3c 82af e7bc
000000b0: d4e4 0e3d 265a 0d3d 934b 1f3d fa3c c2bc
000000c0: 5c92 dcbc 6699 913b 5f93 22bd b23e 7a3c
000000d0: 9a17 8fbb 9ab6 a33c 1fdd 15bd ab1f 3a3d
000000e0: 8a8b 013d 878c c5bc 867a 32bb 3955 513d
000000f0: 9d6b 56bc 0e49 11bd 690f 02bd 9260 8cbb
0.005770691 0.0126753105 0.028820299 0.020284245 -0.039003327 -0.022204837 -0.036275983 0.050805703
0.02809908 -0.020070873 -0.020457823 0.017727336 -0.02349238 -0.032854807 -0.00055818923 -0.03975336
0.026084905 0.044603262 0.016081132 0.030601617 -0.014489408 -0.012907092 -0.0170143 0.040509906
0.038703 -0.03523639 0.024517456 0.0060341484 0.016547699 -0.024245897 -0.02923388 0.023318367
0.0007909577 0.036561634 -0.020022556 0.010812152 0.027802404 0.03586115 0.028435718 -0.020328844
0.0135822175 -0.004802471 0.027014181 -0.02828193 0.034886196 0.0345098 0.038890433 -0.023710717
-0.026925258 0.0044433353 -0.039691325 0.015273737 -0.004366827 0.019984532 -0.03658783 0.045440357
0.031627215 -0.02411486 -0.0027233674 0.051106665 -0.01308718 -0.03547006 -0.031752978 -0.004283973

decoder.1.0.convs.4.weight f4 [64, 64, 1, 1]
00000000: e183 8fbc 5c32 f23d 1677 903d c262 163d
00000010: 6df1 bc3d ec6b 853d 92d6 873c 2380 2c3d
00000020: 33ce 89bc e129 f2bd dc70 f33d 0b38 1abd
00000030: dc06 683d 7280 0dbc e9e9 13bd d8b9 b13d
00000040: aa33 333d d5f2 05be 2b72 e63d 68be 733d
00000050: dc28 65b8 bdb1 fdbb 69f2 b73c e890 aabd
00000060: 205e aa3d d218 dcbd 26ec 08bd da0a bf3d
00000070: f023 abbc dd38 473a 1e04 27bb a8a5 bc3d
00000080: be15 a9bc 792a 1b3c 60b5 a9bc 5f66 1c3d
00000090: 81a1 383d 2ec1 f9bd e3fd 583d e53b dabd
000000a0: 0f30 c0bd 383d bbbd df0e 23bc 310c 1ebd
000000b0: ea68 8d3c 540f d6bd 67d2 a9bd ef81 133d
000000c0: 2b91 5e3c d65e 76bc 9efa 96bd fcb3 323d
000000d0: 45ad bc3d 8a72 9c3d 91ea 7a3d 1a38 ccbd
000000e0: ad1a d7bc 4da1 ec3d 6fcb 3dbb 6f82 eebd
000000f0: f3fe 2f3d a8a3 5dbd e2a4 ef3d c4f4 b9bd
00000100: 84e1 f3bd 40ae 0e3d 40c4 213c a919 18bc
00000110: 5fd4 383d 5997 e7bd 30ce 80bc 750e 83bd
00000120: 11c8 b2bd 4fa2 633c 1e5e d73d a335 09be
00000130: 7ab6 67bd f1f0 9cbd b9ec c0bd fe8b 49bd
00000140: d998 d53d e281 dc3d 634a dabd ecfb e93c
00000150: d446 9ebd 8f76 6dbb c28b 8d3d 4407 f1bd
00000160: 4e67 243c d760 c7bd 5868 a63d 7bfb 7ebc
00000170: 7491 873d 1832 5d3c ec3e 88bd fb2e 623c
00000180: c6f7 aabb 4e58 bfbd 8a6a 713d 1cc6 38bd
00000190: 63e5 9dbd 94e0 e33d 787c 8b3d e8c1 fbbc
000001a0: 1ce5 ebbd a2a8 2abd aef4 7abd 4b62 b93d
000001b0: 4817 853c 8e96 a63d 70bc 9a3d 27dc f4bd
000001c0: e9a8 9c3d e0ee 95bd 2527 de3c b5c4 b13b
000001d0: 5383 d9bb d5d8 6f3d 48da 423c 1735 cb3d
000001e0: c44c 58bd a0fe 63bd 3c96 81bd 35b1 60bd
000001f0: dfb7 ae3c f54d abbd 9f8c 9bbd b10a c83d
00000200: 35f6 f4bd 75b2 90bd 2a28 74bd fa73 b0bd
00000210: 4527 1cbd c46f 023c e2e3 aa3d b7e8 a33c
00000220: 0052 fe3d b7d6 60bc 6e65 973d 287d ecbd
00000230: 005a 54bd e4ef 5b3d a9a9 9a3d 4f51 4ebd
00000240: 3424 9e3d 8a2b d9bd 2252 34bc e49d 89bc
00000250: 2e72 9f3c db42 b6bd f514 c63d c486 d1bd
00000260: 1adb bb3d 1815 883c d60c 853d 4da6 3dbd
00000270: 44d8 bf3c e22c 1b3d a8ab f1bd 5eb7 94bd
00000280: fac2 e43d 6680 a63d 98f4 e8bd 8f24 dd3d
00000290: 5bb3 e33c f9b8 febd 249f d23d f0fe 963d
000002a0: da55 e03c 0c10 61bd 458a cfbd 3f56 95bd
000002b0: 56c3 5bbc 2de1 773b 7079 a4bd f49b b7bd
000002c0: ccc5 e4bb 11ee 94bd 9a22 ce3d c75e e9bd
000002d0: 5939 9fbd db97 c6bd d66a ad3d 30e4 8dbd
000002e0: 62fb de3d 32cf 1cbd 6089 89bd bcac 4e3c
000002f0: dbb6 bc3d 4eae d7bd 60a7 06bd 1a54 e8bb
00000300: 7456 0d3d 6858 ec3d 685d 9d3d 80cb b73d
00000310: 9d69 bb3d 06b3 883d 1c7c 923d 0914 9abc
00000320: b527 113d cc94 f9bc b176 6b3d 14ff be3d
00000330: cd07 a4bd f7c1 91bd 0725 b7bd 58c2 a73c
00000340: 7ecf dcbd 7c76 443d f28d f1bd 77e4 b83d
00000350: d53c c83d 9a1b fd3d 936b e2bd ef2f 513d
00000360: 8355 093d cdc0 b7bd 6162 f73d 071e 6e3d
00000370: 14fe 8d3c ae4b 9dbd b0f4 8cbd 9e5c 313d
00000380: be32 a73c b826 91bd feba 653d 3708 243d
00000390: 1aa2 32bd f805 65bd d62f ebbd 5c98 06be
000003a0: 3425 e93b 83f2 abbd d4ad c6bb 97c9 b9bd
000003b0: 623a cc3d d4e9 08be c1d3 29bb f063 92bd
000003c0: ef16 25bd 6540 d2bd 9eee f23c cb98 37bd
000003d0: db5a 003e bb87 cc3d 2058 dc3a 7457 8a3d
000003e0: d4d4 afbd d6d5 c43d 7f46 c5bd 1edf e43c
000003f0: 9d76 593d 173b 7b3d 6220 e93c dc7d ffbb
-0.01751894 0.118260115 0.07053964 0.036715277 0.09225736 0.06514725 0.016581807 0.04211439
-0.016821956 -0.11824394 0.118867606 -0.037651103 0.056647167 -0.008636581 -0.036111746 0.08678025
0.043750443 -0.13080914 0.112522446 0.059507757 -5.4635908e-05 -0.0077421353 0.022454457 -0.0832842
0.08318734 -0.107469216 -0.033428334 0.09328242 -0.02089116 0.0007599721 -0.0025484632 0.09211284
-0.02064025 0.0094705755 -0.02071637 0.038183566 0.045075897 -0.12195049 0.0529765 -0.10655955
-0.093841664 -0.09142536 -0.009952276 -0.038585845 0.017261941 -0.10452142 -0.08292084 0.036012586
0.013584415 -0.015037259 -0.0737202 0.043628678 0.09212736 0.07639034 0.061258856 -0.09971638
-0.026257837 0.11554203 -0.0028960367 -0.11645972 0.042967748 -0.054111153 0.11701371 -0.090798885
-0.11908248 0.034834146 0.00987345 -0.009283462 0.045124408 -0.11308164 -0.015723318 -0.06399242
-0.08729566 0.013893678 0.10515998 -0.13399367 -0.056570508 -0.076631434 -0.09420151 -0.049205773
0.10429544 0.10766961 -0.106587194 0.028562509 -0.07728353 -0.0036233997 0.06911422 -0.11768964
0.010034395 -0.097352676 0.08125371 -0.015562887 0.0661954 0.013500713 -0.066526264 0.013805146
-0.005217525 -0.09343015 0.058939494 -0.045110807 -0.07709768 0.11126819 0.0681085 -0.03073211
-0.115183085 -0.041664727 -0.0612685 0.09051951 0.016246453 0.08134185 0.07555473 -0.11956053
0.076494046 -0.073209524 0.027118275 0.0054250606 -0.0066379695 0.058556397 0.011892863 0.099222355
-0.052807584 -0.05566275 -0.06327483 -0.054856498 0.021327911 -0.083644785 -0.07595181 0.09767664
-0.11961023 -0.07065288 -0.059608616 -0.08615871 -0.038123388 0.007961217 0.083442464 0.020008428
0.12417984 -0.013723067 0.07392393 -0.11547309 -0.051843643 0.053695574 0.07551891 -0.05037051
0.07721749 -0.106040075 -0.01100591 -0.01679892 0.019463625 -0.088994704 0.09671966 -0.10230783
0.0917265 0.01661162 0.06496589 -0.046301175 0.023418553 0.0378846 -0.11800319 -0.07261537
0.11170001 0.08129959 -0.113747776 0.107979886 0.027795484 -0.124376245 0.1028426 0.07372844
0.027384687 -0.054946944 -0.10133795 -0.07291841 -0.013413271 0.0037823424 -0.08030975 -0.089652926
-0.006981587 -0.0727197 0.100651935 -0.113950305 -0.0777461 -0.09696933 0.08467643 -0.06928289
0.10887791 -0.038283534 -0.06715655 0.012614425 0.092145644 -0.10531293 -0.032874465 -0.007090104
0.034506276 0.115403 0.076838315 0.089743614 0.091510035 0.06674771 0.07152578 -0.018808382
0.03543826 -0.03046646 0.05748624 0.09325996 -0.080093004 -0.07117074 -0.08942609 0.020478413
-0.107817635 0.047964558 -0.11794652 0.09027951 0.09777228 0.1235878 -0.110556744 0.051071104
0.033528816 -0.08972321 0.12079311 0.058134105 0.017333068 -0.076804504 -0.06882608 0.043301217
0.020409938 -0.07087463 0.056086533 0.040046897 -0.043611623 -0.055913895 -0.11483733 -0.13144058
0.0071150307 -0.08395865 -0.0060632024 -0.09071653 0.09972073 -0.13370448 -0.0025913569 -0.07147968
-0.040305074 -0.102661885 0.029654797 -0.04482345 0.12534659 0.09986826 0.0016810931 0.067549616
-0.085855156 0.096110985 -0.09632587 0.027938422 0.053091634 0.06133565 0.028457824 -0.007796986

decoder.1.0.convs.4.bias f4 [64]
00000000: 5711 823d 0ec4 aa3b b6bb 103d 24df b43d
00000010: 49b0 ef3b 1134 973d 18e3 c23d 7e84 5e3d
00000020: 0782 dc3d c988 c43d fbff 0cbc a69c 953d
00000030: 8d93 edbc 23f4 8e3d 2ef0 7dbd bf05 963d
00000040: fee7 63bd 59a9 1a3d 6ea2 c0bd 195a ec3d
00000050: b55e 233d df86 cf3c 402d 57bd 5dec 993d
00000060: 76ba f0bc 8d8c b93d f56c f0bc d6a2 d3bd
00000070: c228 da3d 5b43 82bd ea7d 6cbd f6cd 533d
00000080: a8ff bd3d 4ee5 f6bd efdb 913d 6c5a debd
00000090: 61dc ee3c eb7f 4a3d b37e bdbd 6f7d 023d
000000a0: c823 a8bd 41e3 f2bd de5b da3d 4692 ff3d
000000b0: e8f8 cbbd 08fb 513c df21 ebbd 8135 ffbd
000000c0: c23e dfbd c878 f93c 7398 3b3d 936d a6bd
000000d0: 2c4f a93d 393b cb3b 6e41 a53d 09fb eb3d
000000e0: 38e2 563b 507f 63bd 06eb 2a3d 82f4 76bd
000000f0: 2260 84bd c0c5 fc3c f17d 73bd 2a6c c13b
0.063509636 0.00521136 0.035335265 0.08831623 0.007314716 0.07382978 0.09515971 0.054325573
0.10766988 0.09596402 -0.008605952 0.07305269 -0.029001022 0.06980159 -0.06199663 0.07325315
-0.055641167 0.03775916 -0.09405981 0.11540622 0.03988524 0.025332866 -0.05253339 0.07515786
-0.029385787 0.09060011 -0.02934883 -0.10333793 0.10652305 -0.06360503 -0.05773727 0.05171009
0.09277278 -0.12055455 0.07122027 -0.1085709 0.02915782 0.0494384 -0.092526816 0.031857904
-0.0820995 -0.118597515 0.106620535 0.12479071 -0.099595845 0.012816198 -0.1148107 -0.12461377
-0.10900642 0.0304531 0.045799684 -0.081263684 0.08267054 0.0062021283 0.0806912 0.115224905
0.0032788645 -0.055541337 0.041728042 -0.060291775 -0.064636484 0.030856013 -0.05944628 0.0059027867

decoder.1.1.weight f4 [64]
00000000: b5ff 7f3f 0899 7d3f a956 7f3f 011e 7f3f
00000010: c760 813f 64bc 7f3f 45fc 7d3f 3425 7f3f
00000020: ce4b 813f 1504 803f 23b6 7d3f c2a2 7f3f
00000030: ab2b 813f 7ccb 7d3f c046 7f3f 40a1 7d3f
00000040: ec43 803f b862 803f fdd0 813f 8c12 7d3f
00000050: 9fdc 813f 92c3 803f b2ff 7f3f ff01 7c3f
00000060: c86b 803f b2ab 803f 1e6e 7a3f ad08 813f
00000070: e1a0 7f3f faca 7c3f 1401 803f de36 7f3f
00000080: 6314 803f 0e57 813f 6743 7e3f dbb0 7f3f
00000090: 10aa 7f3f dfec 803f e5d1 7f3f ed57 7d3f
000000a0: d168 7b3f c436 7f3f b287 803f 25c3 7e3f
000000b0: 5534 813f 5082 7f3f a331 7d3f 6b42 803f
000000c0: 0c4b 7e3f e011 803f a967 7e3f 1aa4 823f
000000d0: eb72 803f 7ea3 803f 04f8 803f 5d9d 803f
000000e0: 5e5d 803f b1c3 7e3f 984a 803f 6e51 813f
000000f0: 52fb 803f 5281 813f d687 7e3f ee69 803f
0.9999955 0.9906163 0.9974161 0.9965516 1.0107659 0.99896836 0.9921306 0.9966614
1.0101259 1.0001246 0.99106044 0.99857724 1.0091451 0.9913862 0.9971733 0.9907417
1.0020728 1.0030127 1.0141903 0.98856425 1.0145453 1.0059683 0.99999535 0.98440546
1.0032892 1.0052397 0.97824275 1.0080773 0.99854857 0.9874722 1.0000329 0.99693096
1.0006222 1.0104692 0.993216 0.99879235 0.9986887 1.0072287 0.9992965 0.9896229
0.9820681 0.9969294 1.0041411 0.99516517 1.0094095 0.99808216 0.98903865 1.0020269
0.9933326 1.0005455 0.9937692 1.020633 1.003507 1.0049894 1.0075688 1.0048023
1.0028493 0.9951735 1.0022764 1.0102975 1.0076697 1.011759 0.9942602 1.0032327

decoder.1.1.bias f4 [64]
00000000: f0d6 143c e319 ce3c 96f6 e9ba 01c7 ce3b
00000010: dd6a 6d3c a4b6 ef3b 4b15 cbbb 3664 c83c
00000020: 986f 193c 2297 4c3b 207e 903c 614f 9c3c
00000030: 74a4 ad3a 4cff 983c e74c a7ba 5a07 ea3a
00000040: 3684 b6bb cf0f 67bc 32df 16b9 5979 aebb
00000050: 22eb dd3b ff7d 993c 0016 dabb 655b 76bc
00000060: 3247 0a3a 4dbb c23b bd43 03bb e5b8 e7b8
00000070: feb7 463b 9ab3 473c 7972 f53b c729 a53c
00000080: 6879 a3bc 29b2 093c 41c8 b33b 3e0c be3a
00000090: 8f13 d6bb dea4 c83c 19f3 1dbc 5126 a6bb
000000a0: e49b cf39 5682 53bc bb60 233c 3790 43bc
000000b0: b2ff 203c 1c35 393c e871 b5ba f362 0c3a
000000c0: 5c74 5cb9 4a50 e53b 6e3c 8cba 39c7 273c
000000d0: dc67 e23c de30 6c3c 8aed 7fbb b520 8b3c
000000e0: 8f80 ae3c a055 e53c c115 5e3c a189 773c
000000f0: ec29 923c 97dc 783c 2e57 3f3c 7707 373b
0.009084448 0.025158828 -0.0017849978 0.006310344 0.01449081 0.0073154736 -0.0061976067 0.024461847
0.009364985 0.0031218012 0.017638266 0.01908082 0.0013247863 0.018676423 -0.0012764008 0.0017854974
-0.00556996 -0.01410289 -0.00014388261 -0.0053245244 0.006772415 0.018736837 -0.0066554546 -0.015036439
0.0005274891 0.005942738 -0.0020029389 -0.00011049378 0.003032207 0.012188816 0.007490453 0.020161523
-0.019955352 0.008404293 0.0054865186 0.0014499498 -0.0065330933 0.024492677 -0.0096404785 -0.0050704856
0.00039598264 -0.0129094925 0.009971793 -0.011936239 0.0098265875 0.011304166 -0.0013843151 0.0005355321
-0.00021024182 0.0069980966 -0.0010699162 0.0102403695 0.027637415 0.014415948 -0.0039051496 0.01698337
0.021301536 0.02799493 0.013554991 0.015108497 0.017842256 0.0151893115 0.0116785 0.0027928033

decoder.1.1.running_mean f4 [64]
00000000: 0ff8 4abd 030e 6fbe b08e 08be 8584 e93d
00000010: cad7 8abd 8d4b 823d ad6d 63bd b67b b7bc
00000020: 6e44 853d 40fc 11be 91e2 82bd e196 1bbe
00000030: ea9f 4b3d ae6e a23e 5c43 75be c3ec 02be
00000040: 2f25 353d 97db 383e f3df 17be 48dd e53d
00000050: 2c25 2d3f d800 973d 695e 00be 38ff 753e
00000060: 13bf 7bbd 9e81 6b3e b87e 223e dbf8 aabe
00000070: 9be4 f6be ed76 1bbe f87d fbbe e578 6a3e
00000080: b059 893e a1a9 27be c663 7dbe 9627 abbc
00000090: 356e 253d deb4 043c 6b14 153e 9b9e fd3c
000000a0: 8e0a 14be 3a4b 71be cb98 963d 6b1e 8f3e
000000b0: 90a5 8a3d fa6b 533e 2e75 953c d994 abbe
000000c0: 48de 953e 8929 8b3c 038f ee3d 29cc bb3b
000000d0: 6456 a93d 1421 1dbe cb61 5b3c afdc fa3e
000000e0: a4ff 18bd 91ff 433e 9e09 a13c d1ee 2ebe
000000f0: f8da d43c dff9 d63d 7b42 cfbe fa38 893d
-0.049552973 -0.23345189 -0.13335681 0.11402229 -0.0677944 0.063620664 -0.055524517 -0.022397857
0.065071926 -0.14256382 -0.0639087 -0.15194274 0.049713053 0.31725067 -0.23951477 -0.1278563
0.044224914 0.18052517 -0.14831524 0.11223847 0.67634845 0.07373208 -0.12536015 0.2402314
-0.06146152 0.22998664 0.15868652 -0.33392987 -0.48221287 -0.15182085 -0.49119544 0.2289768
0.2682624 -0.16373302 -0.24745092 -0.0208929 0.040388305 0.008099763 0.1455857 0.030959418
-0.14457151 -0.23563853 0.07353362 0.27952895 0.0676986 0.20646659 0.018244352 -0.33512
0.2927115 0.016987579 0.11648371 0.005731125 0.08268431 -0.1534465 0.013390015 0.48996493
-0.037353173 0.1914046 0.019657906 -0.17083289 0.025983319 0.10496878 -0.40480408 0.067003205

decoder.1.1.running_var f4 [64]
00000000: 5931 843f 7b49 8c3f 9c49 843f 1e5d 9c3f
00000010: 6a08 833f 2837 8e3f aa51 8f3f fc18 883f
00000020: e31d 853f 2deb 8d3f c856 923f 6338 853f
00000030: 4dd6 9a3f 540b 8b3f 2a58 a93f a7d3 853f
00000040: e951 873f 49a0 9f3f 479e 713f 0ed4 803f
00000050: bec5 663f a2fd 803f a733 5d3f 582a 993f
00000060: 8d5d 953f de32 843f 6af6 b63f b037 7c3f
00000070: 09d2 773f f2eb 913f 94da 5f3f 2596 863f
00000080: f11d ae3f 75cc 613f bde8 833f 52b6 983f
00000090: f455 843f 6f3e 803f f6af 9d3f 1de6 8e3f
000000a0: d9ad 7b3f 9fbc 5f3f 6dc9 a23f f05c 9e3f
000000b0: 3441 8f3f 1618 8a3f 4457 8b3f 0ec6 663f
000000c0: 7d82 673f feea 903f 8fde 903f fe62 8a3f
000000d0: 0fc7 a73f c746 613f ac69 8c3f 9505 8b3f
000000e0: 06ea 7d3f 4c9c 823f 47c6 a13f f1bb 733f
000000f0: 438d 813f 2b9c 843f 379e 7c3f ea60 883f
1.032756 1.0959924 1.0334964 1.2215917 1.0236943 1.1110582 1.1196797 1.0632625
1.0399746 1.1087395 1.1432734 1.0407833 1.209665 1.0862832 1.323003 1.0455216
1.0571872 1.247079 0.9438214 1.0064714 0.9014548 1.0077403 0.8640694 1.1966047
1.1669174 1.0328023 1.429395 0.9852247 0.96804863 1.140013 0.874429 1.051457
1.3602887 0.882026 1.0305401 1.193064 1.0338731 1.0019053 1.2319324 1.1163975
0.98312145 0.8739719 1.271772 1.2372112 1.1191773 1.07886 1.0886006 0.9014596
0.90433484 1.1321714 1.131792 1.081146 1.3107623 0.8799862 1.0969748 1.0861079
0.99185216 1.0203948 1.2638634 0.9520865 1.0121235 1.0360159 0.98678917 1.0654576

decoder.2.0.convs.1.weight f4 [64, 64, 3, 3]
00000000: f83b 433c 34c4 bd3c ca69 bb3c 30b2 d13c
00000010: 46ae 003c 4b02 9e3b 493a 17bd e4d8 28bd
00000020: e874 e7bb db53 d5ba 9ce0 c0bb 9bb2 83bc
00000030: 219b f73b 0aee 703c d97f 58bc b0fb 06bd
00000040: f5d8 203d e0ff b03c 337f 1dba a165 f1bc
00000050: ebfc cbbc 199b 5a3c f9f8 17bc 051a a63c
00000060: 44b1 febc 5659 a0bc ed15 7dbc 97b7 1dbb
00000070: 2ee4 e1bc df9e 71bc 67b6 d63c a760 143d
00000080: cd90 e43c a818 26bc 9fa2 d4bc 64a1 33bd
00000090: aeb3 98bc 8f31 373d 0d6e ecbc 8f6e e23c
000000a0: c0b1 f2bc 0ec4 02bd 5c10 ddbb 2ced 633c
000000b0: 0973 463c b2fc 8dbc 5d00 8ebb 8fc6 c43c
000000c0: 2ccf b2bc 3f0d 003d b40b 81bc 366b 0bbc
000000d0: bd9b d5bc 09df 76bc 930d 5b39 1d29 e0bb
000000e0: cb63 9e3b eb28 6d3c 6e31 02bc 46ec 143d
000000f0: 6b4c 56bc 3943 1fbd 4d73 40bd c18f d03c
00000100: 50e0 973c 4930 4f3c 5e93 2cbc 61a0 203d
00000110: f590 1abd 5f1f 67bc e0e6 a5bc d5ee 77bb
00000120: be00 ddbc 11ba e2bc cd15 06bd 7485 7abc
00000130: 0600 f43c faf7 2fbd f88e cf3c 651b 2fbd
00000140: 9511 d3bb d8bd e0bc 47ef 57bc 78ab 8ebc
00000150: 4561 1a3b a892 e1bc a41a 28bd 183c d8bc
00000160: 55d4 25bc 1f22 a83c b297 213d 18bd 46bd
00000170: 49e9 873c ac10 253d 5509 aabc 4a50 b03c
00000180: b8b3 22bd 4844 dfbc 46c6 43bc 6632 fe3c
00000190: f71a 393d 18ae a33c 1545 01bd bc30 cabc
000001a0: 911b db3c 6923 56bd 05dc 203c 463d 61bc
000001b0: dc7c 143d b625 b53b 2127 f1bc 0565 efbc
000001c0: 443d c8bc 74fe aebc 6d4a 9c3c 3b85 b3ba
000001d0: b0fc 12bd 7992 38b9 fa10 23bc 0f4f 23bc
000001e0: 1806 dd3c 1a2f 953c b05b b43c f7b1 8bbc
000001f0: 4a31 803c 7512 4fbd 0905 783c 29e1 1c3c
00000200: 110f 2e3c 6c0d 4f3c 389c a13c b1e7 e93c
00000210: 4768 9ebc 151b 10bd e1fd 063d ab7f a7bc
00000220: 6626 de3c 7d49 593a dabd bc3c f936 e8bc
00000230: 2b2c feb8 2667 7b3c 3338 42bc 3398 63bb
00000240: 41c5 82bc e1f5 043d 5682 953b c840 20bd
00000250: e44e f53b 55e7 b93c 0581 1dbc f217 f53c
00000260: 2a65 b4bc d525 cb3b 04fb 89bb 448e 7abc
00000270: effb 183b 1073 243d 68a9 503b f2a2 8d3c
00000280: 4670 a5bb b747 0bbc 4676 873c 1c86 b03c
00000290: 0526 a23c d38f 3c3d 1e5d 233d a7d1 103c
000002a0: 37db 503c 7c93 ba3c 6303 ecbc 11f7 95bc
000002b0: 62bc f33c f035 4dbd 529d f73c aa38 fdbc
000002c0: b556 d93c 6833 0fbd 1746 a0bc 6512 d5bc
000002d0: aebb 49bc c4fe ef3c bb9c 02bd 8d2e b8bc
000002e0: 59a6 173a 4d98 87bc 67c7 0bbd 4676 10bd
000002f0: b2c0 1bbd cd5f 56bc 818f 213d cdf2 39bd
00000300: 12a9 e2bc ce17 913c 9154 0c3c 786f 9f3c
00000310: 44f7 283d 880a d73c 225f ce3c d404 093d
00000320: 6525 ee3c 7cef 753c bc75 06bd eb1b f1bc
00000330: 2fb1 193c aeb9 da3c 732e c9bc 6a3b 2fbd
00000340: 3ab8 63bc cfb8 8c3c b265 18bd 3846 2abd
00000350: b694 c2bc 1a8d 2ebd 1667 3d3d b068 2bbb
00000360: 52fa 833a 020a cab9 7eee 98bc 8dd2 403b
00000370: ef06 f73b e3cd 40bd b211 803c b9b9 8f3c
00000380: d8c4 57bc 02f4 debb d46a ea3c 9d56 0f3d
00000390: d26f cb3c 59a4 673d 0e52 103b aed8 5fbd
000003a0: f6a7 f93c 483f d7bc 6215 c43c 268f 18bd
000003b0: 81ad 37bc a9e4 73bc 6642 0d3d af79 f8bb
000003c0: add2 c4bc 90f6 53bc 288a 183b 79ce 213d
000003d0: 5903 0fbd e7f5 c83c 6514 46bd 9d8b f13c
000003e0: f8fd 2cbd 8e1d b43b 3410 f13c 6597 813c
000003f0: 4af0 44bd 9382 073c f37e f3bc 0629 27bc
0.011916153 0.023164846 0.022877593 0.025597662 0.00785405 0.0048220507 -0.03692082 -0.041222468
-0.007063497 -0.0016275601 -0.0058861505 -0.016076377 0.0075563346 0.01470519 -0.013214075 -0.03295487
0.039269406 0.021606386 -0.0006008029 -0.029467406 -0.024900874 0.013342642 -0.009275668 0.020276079
-0.031090386 -0.019573849 -0.015447122 -0.0024065727 -0.027574625 -0.0147473505 0.026210023 0.036224987
0.027901078 -0.010137714 -0.02595645 -0.043855086 -0.018640365 0.044724997 -0.02886107 0.02764061
-0.029625773 -0.031925254 -0.006746335 0.013911527 0.012112387 -0.017332409 -0.0043335394 0.024020461
-0.021827303 0.031262632 -0.01575265 -0.008509448 -0.026075238 -0.015067824 0.00020890524 -0.0068408386
0.0048336736 0.014475088 -0.007946355 0.03635814 -0.013079743 -0.038882468 -0.04698496 0.025459172
0.018539578 0.012645789 -0.010533182 0.03921545 -0.037735898 -0.014106601 -0.020251691 -0.0037831564
-0.026977893 -0.027676614 -0.032735635 -0.015290607 0.029785167 -0.0429611 0.025336727 -0.042750735
-0.006441305 -0.027434275 -0.013179607 -0.017415747 0.0023556512 -0.027535751 -0.04104103 -0.026395842
-0.010121425 0.020524083 0.03945131 -0.048520178 0.016590731 0.040299103 -0.020756403 0.02152266
-0.039722174 -0.027254239 -0.011949128 0.031029891 0.04519173 0.019980475 -0.031560022 -0.024681441
0.026746543 -0.052279864 0.009818082 -0.013747519 0.036251888 0.005528177 -0.029437603 -0.029222975
-0.024443276 -0.021361567 0.019078458 -0.0013696322 -0.035885513 -0.00017602173 -0.009952778 -0.0099675795
0.026980445 0.018210936 0.022016376 -0.017052634 0.015648503 -0.05055471 0.015137919 0.009575167
0.010623709 0.012637477 0.019727811 0.028552862 -0.019336833 -0.035182077 0.03295696 -0.020446619
0.02711792 0.00082888437 0.023039747 -0.028346526 -0.00012119891 0.015344417 -0.011854219 -0.003472817
-0.015963199 0.03246105 0.0045626564 -0.03912428 0.007486211 0.022693316 -0.00961328 0.029918645
-0.022020895 0.0061995783 -0.0042108316 -0.015292708 0.0023343523 0.040148795 0.0031839255 0.017289612
-0.0050487844 -0.008500985 0.01653589 0.021548323 0.01979352 0.0460356 0.039883725 0.0088390475
0.012747577 0.022775404 -0.028810209 -0.018306287 0.029752914 -0.050100267 0.030226383 -0.030910809
0.026530603 -0.034961134 -0.019564671 -0.026009748 -0.012312813 0.029296286 -0.03188775 -0.022483135
0.00057849806 -0.016552115 -0.03412571 -0.035269044 -0.038025565 -0.013084364 0.039443497 -0.04539757
-0.02766851 0.017711546 0.008565084 0.019462332 0.041251436 0.026250139 0.025191847 0.03345187
0.029070565 0.015010711 -0.032827124 -0.029432258 0.009380623 0.026699867 -0.024558282 -0.04278127
-0.0138989035 0.017177967 -0.03720636 -0.041570872 -0.023752552 -0.042615034 0.04624089 -0.0026154928
0.0010069108 -0.000385359 -0.01866841 0.0029422373 0.0075386683 -0.04707135 0.015633438 0.017544614
-0.01316949 -0.0068039903 0.028615393 0.03499471 0.024833594 0.05655322 0.0022021565 -0.05465
0.030475598 -0.026275292 0.023935977 -0.037245892 -0.0112108 -0.01488606 0.03448715 -0.007582865
-0.02402624 -0.012937203 0.0023275707 0.03950355 -0.034915302 0.024531318 -0.048359293 0.029485518
-0.04223439 0.0054966873 0.029426672 0.01581926 -0.04808072 0.008270877 -0.02972362 -0.010202652

decoder.2.0.convs.1.bias f4 [64]
00000000: f06b 093d da5b c23c f95b b93c 7d2a fb3c
00000010: ae56 05b9 a328 b83b f8e8 5fb9 0967 073d
00000020: 290d c93a e193 e93b f38d 85bc 2651 78bc
00000030: bc8b aa3c 8426 dfbc a9d5 19bd 4411 343d
00000040: 1b7b 7b3d d333 413d 029c 193c 48c3 603c
00000050: 10be f0bc d9f7 fa3c b63a be3c c5d8 f33c
00000060: 85ad 083d a065 fc3c b9b6 b0bc 99fa f1bc
00000070: c239 b4bc ee65 d63c 5602 3c3d 9285 103d
00000080: eb1c 91bc ad8a d13b c11e be3b 4572 77bc
00000090: 7629 dc3c e8ce 9f3c 3c40 243c 5c64 05bd
000000a0: 296c 20bd a5de 6c3b 715e a5bc 6305 a9bc
000000b0: 657c 233d 52b8 453d a3d0 f3bc b8c2 cebc
000000c0: 510c 0bb8 b0a1 273d 7c84 e7bc 11df 5cbc
000000d0: d460 b7bc 0307 16bb 0586 44bc 72c8 db3c
000000e0: e620 1e3d 788f b93c e8dc d4bc fcb1 7fbc
000000f0: eec0 393d c24c 563d d887 093d d6bf a23c
0.033550203 0.023725439 0.022626864 0.030659908 -0.00012716159 0.0056200786 -0.00021353725 0.033057246
0.0015339005 0.0071282242 -0.016303038 -0.015156066 0.020818584 -0.027240045 -0.037557278 0.04396178
0.0613967 0.047168564 0.009375574 0.013718434 -0.029387504 0.030635761 0.023221355 0.02976645
0.033368606 0.030810177 -0.021571504 -0.02953844 -0.022000197 0.02617165 0.045900665 0.035283633
-0.017713984 0.0063947053 0.005802006 -0.015102928 0.026875239 0.01950784 0.01002508 -0.032566413
-0.03916565 0.0036143449 -0.020186635 -0.020632451 0.039913554 0.048271485 -0.029762572 -0.025239334
-3.3151653e-05 0.04092568 -0.028261416 -0.013480918 -0.022385038 -0.0022892363 -0.011994843 0.026828978
0.038605593 0.022651419 -0.025984243 -0.0156064 0.045350008 0.052319296 0.033576816 0.019866865
