saved_models_idun/encoder-ElectricDevices.ckpt (torch, 896395 bytes, 60 tensors)

encoder.0.block.0.weight f4 [64, 2, 3, 4]
00000000: ce02 77bd 8c91 81bd fd22 843d c29b 7c3c
00000010: b326 de3d 2239 38be 60b0 8f3d c703 3b3e
00000020: ea82 acbd 6ba8 3fbe 99b3 383e 9fbb 113e
00000030: 6021 23be fa14 28be b0df 6e3d a380 51bd
00000040: d6bb 92bb fc75 acbd eabd c3bc fb16 27be
00000050: 4f6c 813d fd07 dd3d 2d11 0fbe fd22 0e3d
00000060: eedc 483e 3f2d 84bd 9fb5 2d3d 3c7f 1fbe
00000070: d1cf 293e c62f 4e3d 7f8d e13d d45f c9bd
00000080: bb08 ecbd 3865 c6bd 8f38 1bbe 5f97 223e
00000090: 56e6 37bd fc6f 073e 203c d3bc 0e09 a8bd
000000a0: 4540 133d 8c5a 283e 20d9 1ebe 7f6c 42be
000000b0: 4e3b d73d 1186 08bd f9af e73c c6ad 863d
000000c0: a41e 473e 2e4a a6bc 316d 26be e313 0fbe
000000d0: 18fb cd3c bd02 c93c 4edb 903d 88cf 34be
000000e0: b945 123e 0e20 4b3e 0ad9 9fbd eeee 89bd
000000f0: a830 e7bc d1c7 603d cd20 013e c75e d43c
00000100: 3b35 fbbb d54c 3ebe 4265 0c3e 896f 12bb
00000110: 968a 1bbe 64d7 a8bc ec50 e6bc e0cb 343e
00000120: c3d8 16be efce bd3b 2552 1bbe 489e 323e
00000130: c838 3d3e 97dd e33d f57b 173e a4ff 43be
00000140: 89ff fb3d 572a 793b 10cc 323d 287e 9f3d
00000150: 142f 2b3e 3166 273d 30d2 253e 2b9b 21bb
00000160: ba4f 573e 3b02 7abd cd4b 2fbd f66b f1bc
00000170: 57cf 27be eabf ffbc 9bcf bf3d 38fe cdbd
00000180: 8a37 e93d 1255 333e 0889 dd3d d3ae f9bc
00000190: f171 433e 855d 2bbd 2b61 ea3d 89fd f43d
000001a0: 70f6 ecbd 6254 963d 2a5b b7bd c5dd 7f3d
000001b0: 89d2 783d f9e7 2438 869c 4dbe 6c1f dcbd
000001c0: 58fb 573d 1908 2b3e 200c 433e 3568 a03d
000001d0: e530 ee3d 3f97 db3d 5332 30be 6258 abbc
000001e0: 27ed 183e d1ea 103e 0dea 3fbd e4a1 353e
000001f0: a410 2d3e 979e 69bd 1504 29bd 017d acbc
00000200: b88a 59bd c2fe da3d e8bb 513b 5453 f4bd
00000210: 0962 073e 3e1d d6bd f612 62be 864d 79bd
00000220: bce3 1b3a 7302 33be 8693 55bd 6bac 0fbe
00000230: 0d67 5fbd c56d c73d 7d8b 36be 5928 02be
00000240: a2de 033d 2fdd 843d 4d2f 263e 036e 023e
00000250: 308e edbd 2464 0ebe d848 143e 3bd6 50be
00000260: 7eff ec3d c11a 0fbd 8260 20be 2b56 3f3e
00000270: 8344 d2bd b701 9ebd a75c c33d 1ce2 f3bd
00000280: f3dd a7bd acd6 94bd 6c1c 793d 5931 44bd
00000290: 2757 3cbe 58be 1f3e 15a6 cb3d ce3a 573e
000002a0: 1484 803d 8343 c8bd 1663 08be 1d26 873d
000002b0: 1500 c13d 5ed1 5abe 1cc5 a83c 2318 afbb
000002c0: c3f5 243e d9fd 8a3d ba50 40be b70d 853d
000002d0: 6723 3d3e a0e5 0f3e 5bb3 063e 9cfb c23d
000002e0: 660e 17be 7bf4 0d3e e481 be3d f073 4ebe
000002f0: fd13 203e 9476 f9bd f73f 00be d0ff 17be
00000300: 10f2 be3c 7565 0cbe 9e7e 03bb 951c 00be
00000310: 13d4 943d a0c8 c1bd 7db6 9bbd 872e 12be
00000320: 155a bbbd c4f1 953d 3f50 0a3e b33c ed3c
00000330: 30a4 163e 5444 a3bc e0e9 14be d0bb a93d
00000340: 9c21 0a3d 4fb9 2cbe 8c45 273e 11cd 543d
00000350: ce19 edbd 2409 223e fc98 24be 6d5f e33d
00000360: c591 3bbd 0847 cfbd 9a67 8c3d 9bb5 eebd
00000370: 3717 19be b0a7 9e3d 34d4 e0bd 5bb9 213e
00000380: 1fed 3fbd 550b b63d dc2d 12be 9534 16be
00000390: b58a dbbc e6ef 02be 7ca3 ebbd ba6a 2c3e
000003a0: a44c 1dbe cbfe 813d 1c12 d83c f235 33be
000003b0: 0049 11be c32b 4d3d 60fd 85bd d1da b9bd
000003c0: 5c5b 993d 19c9 4c3e d0c7 c13d 6720 48be
000003d0: a126 cc3d 077f ee3d 8a8a 3a3e cebe 1fbe
000003e0: 04fd 70bd c760 a0bd 62d2 ee3d 88a3 3cbe
000003f0: 08ec 3d3e f42e 423e 4090 16bd 204a 0abc
-0.06030541 -0.06326589 0.06451986 0.015417995 0.10847225 -0.17990544 0.07016063 0.1826316
-0.084234074 -0.1871659 0.18037261 0.14231728 -0.159307 -0.16414252 0.058318794 -0.05114807
-0.004477958 -0.08420941 -0.023894269 -0.1631736 0.06319486 0.10792539 -0.13971396 0.034701336
0.19615528 -0.064539425 0.042409535 -0.1557588 0.16583182 0.05033853 0.11013316 -0.09832731
-0.11525103 -0.09687275 -0.15158294 0.15878056 -0.0448974 0.13226312 -0.025785506 -0.08204852
0.035949964 0.16440791 -0.15512514 -0.189867 0.10509358 -0.03333098 0.028282152 0.065761134
0.19445282 -0.020299044 -0.1625259 -0.1397243 0.025144145 0.024537439 0.07073079 -0.17657292
0.1428441 0.19836447 -0.07805069 -0.06735025 -0.028221443 0.05487806 0.12610169 0.0259241
-0.0076662577 -0.18583997 0.13710502 -0.0022344312 -0.15189585 -0.020610519 -0.028114758 0.17655897
-0.14731126 0.0057924907 -0.15168054 0.17443192 0.18478692 0.11126249 0.1479338 -0.19140488
0.12304599 0.0038019621 0.04365164 0.07787734 0.16717178 0.04086894 0.16193461 -0.0024659138
0.21026507 -0.061037283 -0.0427969 -0.029470425 -0.16387688 -0.031219441 0.093657695 -0.10058254
0.11387546 0.1751292 0.10817152 -0.03047887 0.19086434 -0.041837234 0.114443146 0.119624205
-0.11570442 0.073403135 -0.08952935 0.062467355 0.060747657 3.931669e-05 -0.2007924 -0.10748181
0.052729934 0.16702308 0.19047594 0.07832376 0.1163042 0.10722207 -0.17206697 -0.020916168
0.14934216 0.14152075 -0.046854068 0.17737538 0.16900879 -0.05703601 -0.04126366 -0.0210557
-0.053110808 0.106931224 0.003200287 -0.11929956 0.13220991 -0.10454796 -0.22077546 -0.060864948
0.0005946716 -0.17481403 -0.052142642 -0.14030616 -0.054541636 0.09737734 -0.17826648 -0.12710704
0.03219474 0.064875 0.16228981 0.12737279 -0.11599386 -0.13905388 0.14480913 -0.20394222
0.11572169 -0.034937624 -0.15661815 0.18685214 -0.10266974 -0.07715171 0.095391564 -0.11908361
-0.0819663 -0.07267508 0.06081812 -0.047898624 -0.18392621 0.15599954 0.09943787 0.21018526
0.06275192 -0.09778502 -0.13319048 0.065990664 0.09423844 -0.2136893 0.020601802 -0.0053434535
0.16109376 0.06786699 -0.18780795 0.064967565 0.18470536 0.14052439 0.13154356 0.09520647
-0.14751586 0.13862793 0.093021184 -0.20161414 0.15632625 -0.1218082 -0.125244 -0.14843678
0.023308784 -0.13710578 -0.0020064483 -0.12510903 0.072670124 -0.09462094 -0.07603166 -0.14275561
-0.09148041 0.07321504 0.13507174 0.028959608 0.1471107 -0.019930042 -0.14542341 0.082877755
0.03372346 -0.16867565 0.16335124 0.05195338 -0.115771875 0.158238 -0.16073984 0.111021854
-0.045793314 -0.1012097 0.06855698 -0.11655732 -0.14950262 0.077468276 -0.109779745 0.15793364
-0.046856996 0.0888888 -0.14275306 -0.14668496 -0.02679954 -0.12786826 -0.115057915 0.16837588
-0.15361267 0.06347426 0.026375823 -0.17501047 -0.14188004 0.050090563 -0.06542468 -0.09074939
0.074881285 0.19998588 0.09461939 -0.1954361 0.099683054 0.11645322 0.18216911 -0.1560013
-0.058835045 -0.07830959 0.11661221 -0.18421757 0.1854707 0.18963224 -0.03675866 -0.008440524

encoder.0.block.0.bias f4 [64]
00000000: 308d 96bd 2583 ecb9 e02f d83c 76e7 86bc
00000010: 9378 f3bd 7531 503e d9b1 51be a6f8 c93d
00000020: c223 47be 797c 2e3d a56c 073e dff8 3b3e
00000030: c137 3d3d 917d 9b3d 9905 cd3d d770 e8bd
00000040: 6443 473e 6749 ae3d a169 573d 306a ab3d
00000050: a955 89bd 83ab b63d c062 c5bc 8d35 083e
00000060: af1d 28be ff6a c7bd bd0b 3fbd deac 36be
00000070: 82ed 13be 6b80 05be ca7e c1bd 89da 983c
00000080: 364f 09be 8bfe cfbd 2b3a febd ecbf 933d
00000090: b644 87bc 60e0 b5bc 48b3 1e3d 77c4 bf3d
000000a0: 1b89 253e 7597 4b3e 3db8 e4bd 6437 343e
000000b0: 8c43 ffbd 5cca d23d 273f 893c ded7 0dbd
000000c0: a062 f53d f3bf 04bd 6ee9 1ebc 7cb3 f23d
000000d0: fe28 70bd a5ad 0bbe 9d5d 363e 074c 0aba
000000e0: e14f 2b3e d60a 27be 5d23 bb3d c298 3c3e
000000f0: 721b 2cbe 37c2 2abe bc8c 893c 79ca 8b3d
-0.07351148 -0.00045111138 0.026390016 -0.016467791 -0.11888232 0.20331366 -0.20478 0.09861879
-0.19447234 0.042599175 0.13225038 0.18356656 0.04619575 0.07592309 0.10010833 -0.113496475
0.19459301 0.08510094 0.05259097 0.08369863 -0.067057915 0.08919432 -0.02409494 0.13301678
-0.16417573 -0.09737205 -0.046642054 -0.17839381 -0.14446071 -0.13037269 -0.09448011 0.018658893
-0.13409123 -0.10155972 -0.124134384 0.072143406 -0.016512256 -0.022201717 0.038745195 0.093636446
0.16165583 0.19881995 -0.11167953 0.17599255 -0.124640554 0.10292503 0.016753746 -0.034629695
0.11981702 -0.03240962 -0.009699209 0.1185064 -0.058632843 -0.13640459 0.17809148 -0.0005275611
0.1672969 -0.16312727 0.091376044 0.18417647 -0.16807345 -0.1667565 0.01679074 0.06825728

encoder.0.block.1.weight f4 [64]
00000000: c0f1 803f 6f75 7e3f 2cff 803f 4910 813f
00000010: e86f 803f 677c 7d3f c289 803f b290 803f
00000020: 121f 813f 0ff8 7f3f ea33 803f 9429 7d3f
00000030: c799 823f 6473 803f 25c7 803f 2f49 7e3f
00000040: 9ba8 803f e57b 7e3f bcda 7d3f 347f 813f
00000050: c878 7e3f 5fab 7e3f 8c3d 823f 8037 803f
00000060: 0d98 7d3f 6b9e 7d3f 0b09 803f ce8e 7d3f
00000070: 615c 803f 8906 7f3f e1e1 7d3f 1fb4 7e3f
00000080: ed68 803f 54eb 813f 5dc0 803f 6c0f 813f
00000090: 5c9b 803f 749a 7f3f a37b 7e3f 0921 803f
000000a0: f75c 803f a626 813f efbe 813f bdbb 803f
000000b0: af5c 803f c023 803f 94b2 7d3f 8197 7c3f
000000c0: 6d07 7f3f 6901 813f 916b 803f 5b3b 7d3f
000000d0: d18b 813f 3421 7c3f a916 813f 023a 803f
000000e0: 1060 7f3f 72e0 7b3f 9469 7f3f 1dd6 7f3f
000000f0: 24c9 7c3f 5b95 7f3f 8843 813f aaad 7f3f
1.0073776 0.9939794 1.0077872 1.0083095 1.0034151 0.9901795 1.004204 1.0044158
1.0087607 0.9998788 1.0015843 0.9889157 1.0203179 1.0035214 1.0060774 0.9933042
1.0051454 0.994078 0.9916189 1.0116944 0.9940305 0.9948024 1.0175033 1.0016937
0.99060136 0.9906985 1.000276 0.9904603 1.0028192 0.99619347 0.9917279 0.9949359
1.0032021 1.0149941 1.0058705 1.0082831 1.0047412 0.9984505 0.99407405 1.0010082
1.0028371 1.008992 1.0136393 1.0057293 1.0028285 1.001091 0.99100614 0.98668677
0.99620706 1.0078555 1.0032827 0.98918694 1.0120794 0.98488164 1.008504 1.0017703
0.99755955 0.9838935 0.99770474 0.99936086 0.98744416 0.99837273 1.0098734 0.99874365

encoder.0.block.1.bias f4 [64]
00000000: 4966 eb3c 4e42 cb3c 2aa9 8e3c 0ebd 7e3c
00000010: 45bd c13c 833d ea3a 67f7 8c3c f71c 353c
00000020: 2fc4 9c3c 125b babb 9514 cc3c a991 043b
00000030: afd2 cc3c 4d58 c03c 8d23 063c f5b6 5abb
00000040: b907 443c f45d c53c 37db b13c 9abe 473c
00000050: 017f fe3b 5730 af3c 754c 913c 91c4 db3c
00000060: cca5 36bb 1529 a43b 1d78 ea3b c8f7 d43b
00000070: 7598 813c d6bf 533c d2c8 9e3c 74e2 593c
00000080: 6eb3 d03c b331 533c b160 8b3c bda9 f03c
00000090: ce3f 7b3c 6a04 0f3b d619 7eb9 284a fe3b
000000a0: 153a af3c 7bec b23c 01a2 793c 365d 813c
000000b0: f98f d33c 852d b63c b334 fabb 3c6f cf3c
000000c0: 869d 563c 7420 cb3c c742 8a3c 3385 373a
000000d0: 1a7f b63c 7b83 923c 47d5 a93c f931 763c
000000e0: 4e09 d23c 3ac3 f9bb b58b d93c ae76 423c
000000f0: 0373 a53c 78de d73c 41c3 883c b4ca 813c
0.028735297 0.02481189 0.017414648 0.015548004 0.023649821 0.0017871115 0.017207814 0.011054269
0.019136516 -0.005687126 0.024912158 0.0020228422 0.025002806 0.023479605 0.008187187 -0.003337321
0.011964732 0.024092652 0.021710975 0.012191439 0.007766605 0.021385355 0.017736653 0.026827129
-0.0027869819 0.00500978 0.007155432 0.0064992644 0.015819767 0.012924155 0.019382868 0.01329862
0.025476184 0.012890267 0.01701388 0.029377813 0.015335036 0.00218227 -0.00024232952 0.007760305
0.02139 0.021841278 0.015236379 0.015791517 0.025825487 0.022238502 -0.007635677 0.025321595
0.01309908 0.024795748 0.016877545 0.0007000744 0.022277404 0.01788496 0.020731581 0.015026563
0.025639202 -0.00762215 0.026555875 0.011869116 0.020196443 0.026351199 0.016694667 0.015843727

encoder.0.block.1.running_mean f4 [64]
00000000: c5d1 97bd 286b 94ba e1ab c83c 0b41 91bc
00000010: fd13 f4bd 305b 503e a203 51be 403d c93d
00000020: c628 48be 1666 323d a582 073e 6439 3c3e
00000030: 426d 403d b9e9 9b3d dbc2 cb3d 8b2f eabd
00000040: f6e6 463e e57c ae3d 0955 5a3d b569 b13d
00000050: b5ab 8abd 7417 b73d e8ab d5bc fc47 083e
00000060: 69ce 28be 688b c5bd cdf6 42bd 7f92 35be
00000070: 2120 17be bcc8 07be e721 c3bd 2015 903c
00000080: ba1b 06be 4ae4 d3bd 6959 ffbd 98dc 943d
00000090: 4216 a2bc 92bf b2bc 1168 173d 2914 bd3d
000000a0: f61d 273e a516 4b3e e297 e4bd 66d9 343e
000000b0: ebda fbbd cf43 d33d 3463 813c f7a4 0cbd
000000c0: fd45 f83d e86d f7bc f11b 26bc bbe8 f43d
000000d0: 3770 71bd 6e1e 0abe 0f25 363e 2876 fe39
000000e0: 0d54 2b3e 3cd1 24be 6f48 bc3d b8f2 3c3e
000000f0: 90c0 2abe 1f47 2abe 063b 8a3c fcf1 8e3d
-0.07413057 -0.0011323439 0.02449602 -0.01773121 -0.11917875 0.20347285 -0.20411542 0.09826136
-0.19546804 0.043554388 0.1323343 0.18381268 0.046979196 0.076129384 0.09949275 -0.11434849
0.19424042 0.085199155 0.053303752 0.0866274 -0.06771032 0.0894002 -0.026082948 0.1330871
-0.16484989 -0.0964573 -0.04759865 -0.17731665 -0.1475835 -0.13260168 -0.09527951 0.017588198
-0.13096514 -0.10346277 -0.124682255 0.072686374 -0.019786004 -0.021819863 0.03696448 0.09232361
0.16320023 0.19832857 -0.11161782 0.17661056 -0.12297615 0.10315668 0.015794374 -0.03433701
0.12122724 -0.030203775 -0.010138498 0.11958452 -0.058944907 -0.1348817 0.17787574 0.00048534689
0.16731282 -0.16095442 0.09193503 0.18451965 -0.1667502 -0.16628693 0.016873848 0.069797486

encoder.0.block.1.running_var f4 [64]
00000000: 8eac 803e 307d 153f 2976 053f 6eba 1d3f
00000010: 1d04 3a3f 5d40 053f 96b3 263f 0f86 eb3e
00000020: 390a 323f 5ad5 c03e 2d0e 003f c40f a53e
00000030: 0d59 0d3f 5abe c33e 560b a43e e735 323f
00000040: f9c3 223f 6f47 153f e2c6 943e ce1e 2d3f
00000050: de2e 203f 1ebc c63e 7c27 f13e 99ce 4d3f
00000060: d7cd da3e 486b e53e 0607 f83e b004 ac3e
00000070: 66c3 063f 9395 113f cc53 a03e c33c 1b3f
00000080: 25a0 123f 9bc4 613f e5d5 dc3e 9acc 623f
00000090: 01e2 1d3f 860c 403f 8e43 313f 7184 383f
000000a0: fc10 eb3e 8055 0e3f 4b72 8a3e 42da 443f
000000b0: d412 6b3f 7495 cc3e b34b 283f 0f67 8d3e
000000c0: 7c01 253f 9cea 383f 7ef8 c63e 8ee8 ef3e
000000d0: 6572 ed3e 5431 1d3f 4f06 ab3e 54e2 0c3f
000000e0: 6c3b 143f f085 373f 749f 213f ef83 973e
000000f0: 4ef8 163f f158 1c3f 3902 a83e 39e9 313f
0.2513165 0.58394146 0.52133423 0.61612594 0.72662526 0.52051336 0.65117776 0.46000716
0.6954685 0.37662774 0.5002163 0.3223859 0.55214006 0.38231164 0.320399 0.696135
0.6358028 0.58312124 0.29057986 0.6762513 0.62571514 0.38815397 0.47100437 0.8039337
0.42735168 0.44808412 0.48442858 0.33597326 0.52641904 0.5686886 0.31313932 0.6063959
0.5727561 0.8819062 0.4313194 0.8859345 0.6167298 0.7501911 0.69243705 0.7207709
0.45911396 0.5559921 0.27040324 0.76895535 0.91825604 0.39957774 0.6574051 0.2761769
0.6445539 0.72232985 0.3886146 0.46857113 0.4637634 0.61403394 0.3340325 0.5503285
0.5790317 0.7168875 0.6313393 0.29592845 0.5897263 0.61073214 0.32814196 0.69496495

encoder.1.block.0.weight f4 [64, 64, 3, 4]
00000000: b39b 883c 14a5 263d df7a 2cbd d564 2bbc
00000010: 905e a23b e567 eb3b f1c5 163c b135 fcbc
00000020: ed84 1abd 793a 87bc 6565 a3bc 1068 b43c
00000030: e5e9 c3bc f1ff dd3c a7e5 ab3c 2fd1 b2bc
00000040: 54e1 45b9 d410 f83c 483a ff3b 7376 913c
00000050: c49d 2e3d 0c02 063d 9d8d a5bc 8125 013d
00000060: 6482 b8bc 369e 90bc 226d fabc 693d bf3b
00000070: c13f 773c 3ed5 0d3d 8629 39bd 08a3 b33c
00000080: 082d c53c 2698 0ebc 063b 813c 0f4e e5bb
00000090: b51f 903c eaf9 8abc 87be 343d f992 0dbc
000000a0: 06ec 08bd 105b 08bc 9081 93bc 545e a03c
000000b0: ed6e 1f3d bf18 52bc afcc 073c 1047 683c
000000c0: 282e 36bc 06e7 bb3c 6bf2 bebc 19af b23b
000000d0: 01df 9bbb 3fe7 b53c 1694 cb3c 9dfd 263c
000000e0: 8419 293d 9ace d83c 2447 3e3d a8ac cebb
000000f0: 2f9f 67bc a4b6 1fbc ba67 843b cdf4 82bc
00000100: abe0 91bb 55ac 9ebc 9ef7 2a3d 1983 bfbc
00000110: 517e f03b 5a84 133d 8265 0cbc c5b7 2cbc
00000120: e2c6 2c3c 41b0 17bd 6558 483c c1c2 933c
00000130: 6928 8b3b f6d1 0e3d 35b1 97bc e53b 183d
00000140: 43bc cd3c 3c63 b7ba 513f ab3c 52d0 8fbc
00000150: f911 a33c c7d0 91bc 564c 9e3c 4283 c6ba
00000160: 838b 1ebd 7822 81ba e603 7bbc b96c 0d3d
00000170: 0d4c 58bc d92b 1c3c 920e 83bb 9220 2c3c
00000180: 1834 b93c b715 213c 1fb3 14bd c2b7 e33c
00000190: ee16 81bc 4bd5 01bd 1de0 22bc 61a8 12bd
000001a0: 0c2c a23c 5b53 533c c8ec 99bc b96b e9bc
000001b0: 4783 3e3d b5a4 00bd 01f5 323d ee8b f33a
000001c0: a29b 1bbc 496c 02bd 6e17 8d3b c0ff 8cbc
000001d0: ef55 3cbc 93c0 95bc 102d cc3c b30d 663c
000001e0: 86f2 09bc ad2c 61bb f47b 61bc 1a8d 293b
000001f0: 4efe 9cbc f3c8 dfbc 26dd c2bb 321e 7fbb
00000200: 6433 4c3c d4f0 013c 4ec4 cbbb 53b3 96bc
00000210: 13a1 9e3c 4c24 b83c 33da 10bd 69b2 7ebc
00000220: e38c 033d e382 0bbd f4b3 283b 7657 ca3c
00000230: 6aa6 8abc da20 18bc 8c35 3e3d 235f 9ebb
00000240: e373 cc3c eb0e 8bbc 7002 9bbc cced 523c
00000250: 126c 85bc 68ee dabc 31a0 00bc ee7e 8f3c
00000260: d23f d23c b060 873c 59b0 9db9 7044 993c
00000270: 172d 993c 5dbc 103c 823c 2abd 6c4c 033d
00000280: d3f7 b63c ef36 a0bc 09e2 ca3c 7e47 db3c
00000290: 8231 473b d212 5b3d f03f 963c af83 1b3c
000002a0: f1c2 dfbc ac81 8d3c 7959 203c 6107 843c
000002b0: 8f83 29bb 8a73 c43b 2b7e a5bc 1450 50bc
000002c0: 3698 343c 4c0d afbb b3a4 803c a3b4 bb3b
000002d0: c698 5abc 3efa fb3c bb79 213c d035 36bd
000002e0: 2860 8d3b 07af ea3c ebf1 c53c 8b1c 39bc
000002f0: 7eeb 513c 5429 c1bc e3a8 5cbc f25f 67bc
00000300: 8bcf 8ebc b76f 8a3c 6f40 f1bc a000 08bb
00000310: 2cc7 fe39 a9da 8abc 0f53 1a3d 8485 e1bc
00000320: 16d5 593c e6ef 6d3b a2dd 3cbc 3a06 21bc
00000330: 427f d23b 4f00 a8bc 7502 01bb 4737 13bd
00000340: df13 72bc 85e1 a23c 0f6f 6b3c 64c8 1cbd
00000350: 561e 1abd 57c7 f33c d219 f53b ab8e ecbc
00000360: 389f de3a bcf9 1abd 0d1c 70bb 9746 1bbc
00000370: e91b 073c 40b9 b43c 9207 913c af4c 37bd
00000380: d12e 6c3c 60b5 4dbb 1493 ddba 81ae 943c
00000390: 7fb7 2c3c fa5a 8ebb 920d bcbc 89ad 193d
000003a0: ffcf 123d 6432 d43b d093 1d3d a7aa bdbc
000003b0: 5ff3 a73b 6c21 0c3c 81df 16bd 1de9 c4ba
000003c0: 278a bfba 13da 6cbc ce3f f63c 6efe 1dbc
000003d0: 0e7e 2dbb 3ed1 e0bb 8ee3 10bd b3e3 efba
000003e0: cfb0 533b 6337 06bd 25ca af3c 7889 bdbc
000003f0: aec1 f13c eb10 383c 5fd4 b83c 04d3 1f3d
0.016675806 0.040684775 -0.042109367 -0.010461052 0.0049551204 0.007184016 0.009202466 -0.03078732
-0.037724424 -0.016507374 -0.01994581 0.022022277 -0.02391524 0.027099581 0.02098353 -0.021828262
-0.00018871325 0.030281462 0.00778893 0.017756676 0.042630926 0.032716796 -0.020209128 0.031529907
-0.022523113 -0.017653566 -0.030569617 0.005836178 0.015090884 0.03462719 -0.045205615 0.021928325
0.024069324 -0.008703267 0.015775215 -0.0069978307 0.017593244 -0.016964871 0.044127014 -0.008640998
-0.033428214 -0.008322492 -0.018006116 0.01957623 0.038924146 -0.012823283 0.008288546 0.014177099
-0.011119403 0.022937309 -0.023308953 0.005453002 -0.0047568087 0.022204993 0.024850886 0.010192302
0.0412841 0.026465703 0.046454564 -0.0063072033 -0.014137073 -0.009748135 0.0040406855 -0.01598587
-0.0044518313 -0.019369284 0.041740052 -0.023377942 0.007339277 0.036014892 -0.008569123 -0.010541861
0.010545464 -0.037033323 0.012228106 0.018037202 0.0042467606 0.034868203 -0.018517116 0.037166495
0.025114184 -0.0013991366 0.020904215 -0.01755539 0.019906031 -0.017799748 0.01932351 -0.0015145319
-0.038707267 -0.0009852191 -0.015320754 0.034527514 -0.013201726 0.0095319385 -0.0039995397 0.010505812
0.022607848 0.009831837 -0.036303636 0.027797583 -0.015758004 -0.031697553 -0.009941128 -0.03580511
0.019796394 0.012898291 -0.018789664 -0.028493749 0.046511915 -0.031407077 0.043690685 0.0018581131
-0.009497555 -0.03184155 0.0043057716 -0.017211795 -0.011495098 -0.018280303 0.024923831 0.014041352
-0.0084196385 -0.0034358904 -0.013762463 0.0025871457 -0.01916423 -0.0273175 -0.005946773 -0.003892791
0.012463424 0.007930953 -0.0062184697 -0.018396055 0.019363916 0.022478245 -0.03536434 -0.015545466
0.032116782 -0.03406037 0.0025742026 0.024699908 -0.016925056 -0.009285176 0.046437785 -0.0048331185
0.024957603 -0.016974887 -0.01892206 0.012874078 -0.016286884 -0.02672501 -0.007850693 0.01751658
0.025665198 0.016525596 -0.00030076763 0.018709391 0.018698258 0.008833972 -0.04156161 0.032055303
0.022334969 -0.019557444 0.024765985 0.026767489 0.00303945 0.053484745 0.018341035 0.009491845
-0.027314635 0.017273746 0.009786957 0.0161168 -0.0025865769 0.0059952186 -0.020201763 -0.012714405
0.011022618 -0.0053421613 0.015703535 0.0057283207 -0.013342088 0.030758973 0.009855683 -0.044484913
0.0043144412 0.028647913 0.024163207 -0.011298309 0.012812493 -0.023579277 -0.013468 -0.014121996
-0.017432949 0.016898973 -0.02944967 -0.0020752326 0.0004859505 -0.016949968 0.037676867 -0.027529486
0.013295433 0.003630632 -0.011527451 -0.009828145 0.0064238617 -0.02050796 -0.0019685302 -0.03594139
-0.014775245 0.019882927 0.01436974 -0.038277045 -0.037626587 0.029758139 0.0074798847 -0.028876623
0.0016984707 -0.03783582 -0.0036637813 -0.009477279 0.0082464 0.02206099 0.017703805 -0.044750866
0.014415459 -0.0031388626 -0.0016904795 0.018149616 0.010541796 -0.0043443413 -0.02295569 0.03751901
0.03584289 0.0064757336 0.038471043 -0.023152662 0.0051254476 0.00855289 -0.036834244 -0.0015023086
-0.0014613316 -0.01445629 0.030059721 -0.00964318 -0.002647284 -0.006860881 -0.035373263 -0.0018302113
0.003230143 -0.032767665 0.021458695 -0.02313684 0.029511299 0.011234502 0.022562204 0.0390196

encoder.1.block.0.bias f4 [64]
00000000: 91de f43c c37d 183c 689b aabb f844 38bc
00000010: 08a7 fb3c 555c fb3c 16ca dabc c4a6 9dbc
00000020: 807a 0e3c 1a1f ffbc e96c cf3a b11f 03bc
00000030: ed69 e33c ce00 5abc a65e 14bd 497f c8bc
00000040: 19b3 0dbd 74aa 82bc ac23 073d 22e2 8aba
00000050: 7c61 2e3c f852 833b df00 043d dd06 06bd
00000060: b3f8 993c 8054 45ba 13c7 40bc a9b5 aabc
00000070: 6aa1 d2bc ee92 87bc a742 573c d9f0 d93c
00000080: adf4 3d3c 653d f6bc 52b3 a0bb 0dce 07bd
00000090: 9eba 25bc 089e b2bc cb15 32bc 005f 2ebc
000000a0: 91b6 063d bf9d b9bc b131 673c d9fe a7bc
000000b0: 1a55 61bc 84fc ce3c 84f3 cbbc ccf7 c33b
000000c0: 446c 72bc 9d14 a8bc ea0c e0bb 9c6f 023d
000000d0: 52bb 823c ae0e f2bc 6d65 653c fefc edbc
000000e0: 70ea ee3c 9ab7 ccbc f258 a7bc 2d56 ee3b
000000f0: 5a0b c43a 667e f9bc 2bb2 ca3c 51af 033d
0.029891284 0.009307328 -0.005206514 -0.011246912 0.030719295 0.030683676 -0.02670769 -0.01924456
0.008696198 -0.03114276 0.0015825304 -0.008003161 0.02776047 -0.013305856 -0.036223076 -0.024474757
-0.03459463 -0.015950419 0.032993004 -0.0010595957 0.010643359 0.0040076934 0.032227393 -0.03272139
0.018795347 -0.0007527545 -0.011766213 -0.020838575 -0.025711734 -0.016549554 0.01313845 0.026604103
0.01159398 -0.030058572 -0.004904189 -0.03315549 -0.010115294 -0.02180387 -0.010869454 -0.010642767
0.032888953 -0.022658227 0.014110968 -0.020507263 -0.0137532 0.025266893 -0.02489639 0.0059804674
-0.01479632 -0.020517642 -0.006837477 0.03184472 0.015958462 -0.029548015 0.014001233 -0.0290513
0.029164523 -0.024989892 -0.020428155 0.0072734565 0.0014956996 -0.03045578 0.02474316 0.032149617

encoder.1.block.1.weight f4 [64]
00000000: 745c 803f 8d27 803f 68d4 803f 18c7 7e3f
00000010: e8af 7f3f 5cab 813f 2a78 803f 3c5b 7b3f
00000020: 230b 803f ba81 803f 32f2 803f 021c 803f
00000030: 1ce6 823f 6060 803f fa79 813f 4cb7 7d3f
00000040: 37e6 813f b046 7d3f 0263 803f 65e8 7f3f
00000050: f214 7d3f d153 803f df59 7e3f 4045 803f
00000060: 4302 813f cc3f 813f 5945 813f 3619 823f
00000070: 8674 7f3f 6d34 813f a464 803f 6bff 803f
00000080: 132c 813f bb62 7f3f 7997 803f 1c76 803f
00000090: 7d96 803f 3bb1 803f 54e5 7e3f 6265 803f
000000a0: 1f23 7f3f a78f 813f 8cd4 7d3f 1947 7e3f
000000b0: 153e 7d3f 1dd9 7d3f de54 813f e55f 7f3f
000000c0: 7b7f 7c3f 57a8 813f c406 7e3f 03f8 813f
000000d0: ba39 813f 9f45 803f d6c9 803f 8ec0 7d3f
000000e0: 0ea3 7d3f 1e21 7f3f 555b 813f 3015 7e3f
000000f0: ce62 813f 760a 7e3f 5b42 813f f5bc 7d3f
1.0028214 1.001207 1.0064821 0.9952254 0.99877787 1.013042 1.0036671 0.9818609
1.0003399 1.003959 1.0073912 1.0008547 1.0226474 1.0029411 1.0115349 0.99107814
1.0148381 0.98935986 1.0030215 0.9996398 0.98860085 1.0025579 0.9935588 1.0021133
1.0078815 1.0097594 1.0099288 1.0163944 0.99787176 1.0094124 1.0030713 1.0077947
1.0091575 0.99760026 1.0046226 1.0036044 1.0045925 1.0054086 0.99568677 1.003094
0.99662966 1.0121964 0.99152446 0.99327236 0.98922855 0.99159414 1.0104024 0.997557
0.9863202 1.0129498 0.99229074 1.0153812 1.0095742 1.0021247 1.0061595 0.9912194
0.99076927 0.9965991 1.0105997 0.9925108 1.0108278 0.9923471 1.0098375 0.9911645

encoder.1.block.1.bias f4 [64]
00000000: 907d b73c f363 8f3c 56f6 cd3c 83f9 a33c
00000010: aa07 8c3c 89c1 b83c 42da 403c 3704 18bc
00000020: f0b7 943c 4f1b db3c 7caa cb3c 81cf be3c
00000030: 6064 3e3c 9d4d cd3c 391a 823c 691b 7a3c
00000040: 5d2c fb3c ffce a03c d2eb e53c 3687 533b
00000050: ed3b a53c 5c22 d83c ba0c db3c dc1b db3c
00000060: fd45 b13c 8906 9a3c 7a98 7d3c bc5d c43c
00000070: 9fbf be3c 519d e63c 08c3 4e3c 18a9 cd3c
00000080: 6b60 bc3c f454 ce3c 2f04 c53c 6738 a93c
00000090: a198 aa3c a71c ce3c 1ab1 913c ea4c f63c
000000a0: 152a 1b3c e56f e33c 429c 0ebc 938a f93c
000000b0: 8a5c 8b3c f77c 6a3c cef2 f23c 4e75 803c
000000c0: 9f14 af3c bb23 af3c 7a7c 913b 8014 bb3c
000000d0: d117 c33c 7820 913c b982 9d3c bbc8 4e3c
000000e0: 2361 b13c 9bab 983b c854 963c 3aec cd3c
000000f0: d7bf a23c 20a5 433c 47e6 e73c 8b38 893c
0.02239874 0.017503714 0.025141876 0.020016437 0.017093498 0.022553222 0.011770787 -0.009278349
0.018154114 0.02674642 0.024861567 0.023292305 0.011620611 0.025061423 0.015881645 0.015265324
0.030660802 0.019629953 0.02806655 0.0032276637 0.020170176 0.026383571 0.026739467 0.026746683
0.021639818 0.018801944 0.015478248 0.023970477 0.023284731 0.028151186 0.012619741 0.025105044
0.022995194 0.025186993 0.024049846 0.020656778 0.020824732 0.025160147 0.017784644 0.030065972
0.009470482 0.027763316 -0.008704247 0.030461585 0.0170119 0.0143120205 0.029656794 0.015680935
0.021372138 0.021379342 0.0044398876 0.022836924 0.023815067 0.017715678 0.019227372 0.0126211
0.021652764 0.004659129 0.018350974 0.025137056 0.019866867 0.011941224 0.028308047 0.016750595

encoder.1.block.1.running_mean f4 [64]
00000000: 491d ae3e 928d 8dbe 6656 013f 58f6 c0bd
00000010: 96bd 1e3f 3600 533e 7877 293e 120f 8bbe
00000020: 0cb3 fd3d d785 263d 75da 21be 4683 873e
00000030: 2bcd b33e 79be 88bc 878a c9bd c56b 963c
00000040: 0678 dc3d dcc6 d13e a3f3 e73e d625 733e
00000050: fbcb c0be 7d60 6c3e f66f e23e 9f8f fe3e
00000060: a124 523e fe75 8cbe 48b2 8dbd 4034 d73d
00000070: 8d62 323e 6bdd 043e a2c2 28bd c866 933e
00000080: 6fb4 f73c 0842 9e3c 4016 233e f430 68bd
00000090: b8c2 d43e 8e46 9b3e 91c3 02ba 0623 02bd
000000a0: 4890 b73e 698b 453e c1d5 bd3e e7fc fa3e
000000b0: fd3e b13e 235c 4e3f 64b4 783e eee5 a53d
000000c0: 7459 aabe 0525 183e aa71 eb3e f144 9b3e
000000d0: 16f5 793e 3ea6 72ba f25f 003e d6f6 453e
000000e0: 4562 b6b9 e9a3 503e bddd 823d 7e72 683e
000000f0: bb96 6c3d a049 d1bd f2cf fb3d cf76 c73e
0.34006718 -0.27647072 0.5052246 -0.09421986 0.62008035 0.20605549 0.1654948 -0.27159935
0.12387666 0.040654983 -0.15805991 0.2646734 0.35117468 -0.016692387 -0.09840875 0.018361935
0.1076508 0.4097203 0.45303068 0.23744902 -0.37655625 0.23083682 0.44226044 0.4971895
0.20521785 -0.2743377 -0.0691877 0.10508013 0.17420407 0.12975089 -0.04120124 0.28789353
0.030237405 0.019318596 0.15926456 -0.05668731 0.4155481 0.30327266 -0.0004988248 -0.031771682
0.35852265 0.19291462 0.37077144 0.49021074 0.3461837 0.8060934 0.24287564 0.08100496
-0.33271372 0.14857872 0.45985156 0.30326036 0.24409899 -0.00092563394 0.125366 0.19332442
-0.00034786962 0.20375027 0.063899495 0.22699925 0.057760935 -0.10219121 0.12295522 0.3895783

encoder.1.block.1.running_var f4 [64]
00000000: a33e b83e 19fc dc3e 0dd4 4a3f baad eb3e
00000010: de42 f43e dc4b 893e 41a1 ab3e 5b8e 363f
00000020: 511d dc3e 84c6 c93e 2fc5 1e3f 2e19 0c3f
00000030: b07b a73e 7bf3 d13e cb99 a33e 289a c23e
00000040: d13d e13e 7a2a 253f 078a 023f 4eb3 fe3e
00000050: b8c9 f63e e318 ec3e 3f70 3a3f 5394 303f
00000060: 8b17 9a3e 2054 f13e 6a27 c73e 3723 d13e
00000070: 8fdb 963e 991b df3e a58d 013f ebcc dc3e
00000080: a55c 873e 70fa d43e 72b0 8f3e 1845 003f
00000090: 21d3 0b3f d13c c63e eb88 583e b151 d33e
000000a0: fd50 073f f3de e83e 92fe e63e 1271 d43e
000000b0: 161a cf3e ffe7 313f f42d aa3e d3aa ce3e
000000c0: 4542 0d3f 873b d73e 28f0 ef3e 93cf d93e
000000d0: 5bb0 ea3e ccfe f93e 6729 a13e c01c 153f
000000e0: 2eb9 9c3e 0fc8 b93e 2c0e 0c3f 62c9 ce3e
000000f0: de79 e73e 27d7 f73e 99c7 d33e 2ffc df3e
0.35985288 0.43161085 0.79229814 0.4603098 0.47707266 0.2681569 0.33521464 0.7131097
0.42991117 0.39409268 0.6201963 0.5472592 0.32711554 0.41006073 0.31953272 0.38008237
0.43992475 0.6451794 0.50991863 0.49746174 0.48200774 0.46112737 0.72827524 0.68976325
0.30096087 0.47134495 0.38897258 0.4084718 0.29464385 0.43575743 0.5060676 0.4312509
0.2643787 0.4159732 0.28064305 0.5010543 0.5461903 0.38718274 0.2114598 0.41273263
0.52857953 0.45482597 0.45116097 0.41492516 0.4044959 0.6949462 0.33238184 0.40364704
0.55179244 0.42037603 0.46862912 0.4254118 0.45837674 0.48827207 0.314769 0.58246994
0.3061003 0.36285445 0.54709125 0.40388018 0.45210165 0.48406336 0.41363218 0.43747088

encoder.2.0.convs.1.weight f4 [64, 64, 3, 3]
00000000: 7aa8 073c 4946 11bc c932 54bb e2a7 91bb
00000010: eda0 623b cf9e 17bc f5ba 743c a1af 04bd
00000020: b0fb 1bbd 3785 7f3a 31da 443d 7b72 4d3d
00000030: 4baf c33c 81d2 a4bc 2349 783c 642b a93b
00000040: e8a9 143b 1b05 cebb 0703 15bd 089d 683c
00000050: 013f 89bb 81b0 be3c d352 7e3c 9955 3abd
00000060: 9bc3 9cbb f417 29bd 787d f23c 9cd6 883a
00000070: ff43 05bc f423 c93c cb85 5bbd fb51 fb3c
00000080: b874 f03c bffb 903c b8a9 4ebd bbe5 1dbc
00000090: 5117 f0bc aacf 203c 857d 60bc dda9 68bc
000000a0: 4176 f7bc bf02 f23b 2f5f 223d e8f1 81bb
000000b0: 813f 4d3c 5127 ee3c 9530 aebc 92da 16bd
000000c0: fcb1 dd3c 7d18 f63b 0203 33bd 6711 28bc
000000d0: 5015 123d c4e9 b93c aeff 073d b2cf a73c
000000e0: 31f1 11bb 4e5f a9bc 5f04 fabb 4272 693c
000000f0: 4e92 503d 64fb 0b3d 0cf3 01bd 90b1 22bb
00000100: 05ea 30bd e0ef 32bc b950 5bbc 6616 9dbc
00000110: e78d fcbc 5227 0dbd bb7d 423d 4a0a 983b
00000120: 2127 503d 8e96 b03c 8f7f e93b 9ce3 43bc
00000130: 0fb6 aa3c 6023 98bc 639f 11bb ab1d 413a
00000140: 666c 1f3c 2cfc c7bb 03de 89bc 0f37 193c
00000150: 0c4a 993c 61c5 20bc 33cf 02bd a37f 13bc
00000160: 145e 143c d005 8e3c f434 fdbb dfda 0c3d
00000170: 5c69 01bc 7112 36bd a1d4 0f3d 384d fa3b
00000180: a405 cbbb 59d6 653a 1022 0b3c 50bc 9d3c
00000190: 67c9 9a3c a7d0 f33c 68fa f5bc dde3 553b
000001a0: 3ab1 083d 642a 043d 4816 03bd 7210 0fbd
000001b0: 07b3 f43c 786d 91bc 75a0 153c 4d35 3b3d
000001c0: 003a 8dbc b67d 3ebd 8e34 e93c ca61 19bd
000001d0: 78b7 11bd 74bf a2bc 168c 1ebd c5dd 8636
000001e0: 3d59 1abc 7ad8 08bd 297e cebb 3e90 5d3c
000001f0: d0f3 4a3d 2b0b 2abd 1e31 073d dccc cc3c
00000200: a573 a3bc c69e a53c 17be 0abd 9b0a d13c
00000210: b34d 9fba 9172 9dbc 709c 3eb7 1c52 ef3b
00000220: 5289 6b3c d0ca 3abd 65ec 15bc fe38 19bc
00000230: bfa2 babc e6a8 87bb a9ff 333d 59a0 1bbc
00000240: c057 eb3c b762 c23a c956 0c3d 2da4 a93c
00000250: 6a4e b3ba c253 c0ba e89a cfbc e2ff 2a3c
00000260: c73b 7fbb e825 34bd ecf1 a9bc 551a 18bc
00000270: 09e3 20bd 0c5a 0d3c f701 c3ba de38 21bc
00000280: 0081 1ebd 2188 013d bfd0 b13c bd91 213a
00000290: cf25 a23c 558d 3d3d 8eb4 02bc c796 a6bc
000002a0: ad0a 1abd 93f7 f63c ec6c e43c 6a5b 0d3d
000002b0: adc3 403c 85a8 1cbc 986e 303d 841b 51bc
000002c0: 7264 d7bc 4975 2bbc bb69 28bd 72dd 67bd
000002d0: 9377 0fbd 6b86 253c 0592 ec3c afc0 223d
000002e0: 7c6e b7bc 30e5 1b3d 3438 4e3d 30da 49bd
000002f0: d1a6 24bc 71c7 043d 6a20 d3bc bc4e 5f3c
00000300: 5471 093d a5ce 0bbc 8575 83bb d8f1 3abb
00000310: e036 30bd a71b f1bc 9882 88bc 62bd 023c
00000320: 0dd1 f03c e9c1 25bd f2be 7dba 98b3 2c3d
00000330: 73f9 d93c 6e4b 2b3d d2b8 26bd bff0 9b3c
00000340: f980 6b3d a156 983c df9f 933c 563b fc3b
00000350: c216 4c3d bb6a fd3b d5c2 303b 71b2 41bd
00000360: 55c2 933c 3f2e d9bc 300a 213d a154 1f3d
00000370: 30cc d13c 57d7 1a3d f475 0c3d 94ab 12bd
00000380: 0307 0b3d ef38 03bd 4c1d 173c 5c19 2abb
00000390: 81f5 ad3c 62c6 8c3c a9ee 3a3d c4ef b13c
000003a0: 1316 9b3c 7832 ae3b e653 4d3c a9ff 603d
000003b0: dcc2 733b 085f 243d ee31 c43b 9ea8 d33b
000003c0: 3130 033c 00c1 44bc 6985 e1bc cf98 acbc
000003d0: a5de 693d 8440 2b3a 0b87 82bc cf93 0bbd
000003e0: 7382 edbc 7104 97bc 8831 26bc f1f0 583c
000003f0: dc25 993c 1b3b a8bb e80a 343a 3b60 76bc
0.008279914 -0.008866855 -0.0032378903 -0.004445062 0.0034580783 -0.0092541715 0.014937152 -0.032394055
-0.038081825 0.00097473286 0.048059646 0.050158005 0.023887297 -0.020119907 0.015154156 0.0051626433
0.002268428 -0.0062872297 -0.03637984 0.014197595 -0.004188419 0.023277523 0.0155226765 -0.04549179
-0.00478406 -0.04128261 0.029600844 0.0010439935 -0.008133887 0.024553277 -0.05359439 0.03067874
0.02935253 0.017698167 -0.050454825 -0.009637292 -0.029307993 0.009815136 -0.013701801 -0.014200655
-0.030207755 0.0073855813 0.039641555 -0.003965605 0.012527348 0.029071482 -0.0212634 -0.03682954
0.027062409 0.0075102434 -0.04370404 -0.010258055 0.035664856 0.022694476 0.03320282 0.020484779
-0.0022269005 -0.020675328 -0.0076299156 0.014248433 0.050920777 0.03417529 -0.03172593 -0.0024825074
-0.04319193 -0.0109214485 -0.013385945 -0.01917572 -0.030829383 -0.034461327 0.047483187 0.0046398984
0.050818566 0.021556165 0.007125802 -0.011956122 0.020838765 -0.018571556 -0.0022220246 0.00073667866
0.009730434 -0.0061030593 -0.016829496 0.009351506 0.018712066 -0.009812684 -0.03193588 -0.009002599
0.009055633 0.017336756 -0.00772726 0.03438842 -0.007898655 -0.04445118 0.035114888 0.0076385997
-0.006195741 0.0008767597 0.008492008 0.019254833 0.018894864 0.02976258 -0.03002663 0.0032637038
0.03337214 0.03226699 -0.03200367 -0.034927793 0.029870523 -0.017752394 0.009132494 0.04570513
-0.01723957 -0.046506606 0.028467443 -0.037446775 -0.03557536 -0.019866683 -0.038707815 4.0193286e-06
-0.00942069 -0.033409573 -0.0063016606 0.01352316 0.049548924 -0.041514557 0.033005826 0.025000028
-0.019952605 0.02021731 -0.03387269 0.025517752 -0.0012153893 -0.019219669 -1.1361306e-05 0.0073034894
0.014376001 -0.045603573 -0.009150599 -0.009351967 -0.022782682 -0.0041400073 0.04394499 -0.009498679
0.028728366 0.0014830445 0.034262452 0.020708168 -0.0013679985 -0.0014673399 -0.02534242 0.010436984
-0.0038945542 -0.043981463 -0.02074524 -0.009283622 -0.039279018 0.008627426 -0.0014877905 -0.009840218
-0.038697243 0.031623963 0.021705983 0.00061633793 0.01979342 0.046277363 -0.007977618 -0.020335568
-0.037607837 0.03014735 0.02788397 0.034511007 0.011765403 -0.009561663 0.04307422 -0.012762908
-0.026293013 -0.010464975 -0.041116457 -0.05660767 -0.035026144 0.0101028485 0.028878221 0.03973454
-0.02239155 0.038060367 0.05034657 -0.049280345 -0.010049538 0.032416765 -0.025772292 0.013629612
0.033555344 -0.008533155 -0.004011812 -0.0028525498 -0.043021083 -0.029432131 -0.016663834 0.007979723
0.029396558 -0.04046813 -0.0009679637 0.04216346 0.026608204 0.041819982 -0.040703602 0.019035695
0.057496045 0.018595995 0.018020568 0.007697503 0.04982639 0.0077336705 0.0026971598 -0.047289316
0.018037 -0.02651131 0.039316356 0.038899068 0.02561006 0.03780302 0.034292176 -0.03580816
0.033942234 -0.032036718 0.0092232935 -0.0025955057 0.02123523 0.01718444 0.04563776 0.021720774
0.018931424 0.005316075 0.01253221 0.054931317 0.0037195003 0.04012969 0.0059873974 0.0064593097
0.008007095 -0.012008905 -0.027529435 -0.021068959 0.057097096 0.0006532746 -0.015933534 -0.034076508
-0.028992867 -0.018434735 -0.010143645 0.013241039 0.01869481 -0.005133999 0.000686808 -0.015037592

encoder.2.0.convs.1.bias f4 [64]
00000000: e22f f83c 038c c2ba 9ef8 1dbd a5ef f0bc
00000010: 8a4f f6bc 62c2 f73c f746 0e3d f2b8 ed3c
00000020: 60ec 21bd 24da 1f3c 75c6 1d3d b8f5 14bd
00000030: e1da ffbc 603b f4bc 1ecc f8bc d877 173d
00000040: 4b28 5b3c 90b7 093d 5089 653c c8f5 a03b
00000050: 5aa6 25bd 4b6b d2bc 837c 1b3d 51cc e3bc
00000060: 852c 52bc cbb8 123d d089 2e3c c7a9 303c
00000070: 0aac b3bb 5fa5 27bd df30 143b f755 ae3c
00000080: f4ab 0d3d 5f98 c1bc 914d 6bbc 3cef dabc
00000090: 0e08 01bd 5322 0abd 2bd6 f6bc 8a68 15bd
000000a0: 1f27 893b 922e cf3c cb8a 413c bd62 de3c
000000b0: b617 0b3d 6102 ef3b 1ca5 263b c37b 29bc
000000c0: 830b 2abd bb16 9e3c 1f8a d53c c467 8d3b
000000d0: e0bb c93c 7cc9 953c 60af 8b3c ca57 0abd
000000e0: 1eb1 c33c 530e a23c 0a77 2f3d 8620 4a3c
000000f0: 5e9b e6bc 901a 223d 2042 1ebc 7d57 fcbc
0.03029627 -0.0014842752 -0.038567178 -0.029411146 -0.030067224 0.030244056 0.034735646 0.029018853
-0.039532065 0.009756599 0.03851934 -0.03636715 -0.0312323 -0.029813468 -0.030370768 0.036979526
0.013376306 0.033622324 0.014009789 0.004912112 -0.04044185 -0.025685927 0.03796054 -0.027807387
-0.012827997 0.035820764 0.010652974 0.010782666 -0.005483155 -0.040929195 0.0022612137 0.021281226
0.034587815 -0.023632227 -0.014361755 -0.026725404 -0.031501822 -0.03372414 -0.03013142 -0.03647665
0.004185572 0.025290761 0.011812876 0.027146691 0.03395816 0.0072939848 0.0025428003 -0.0103444485
-0.041514885 0.019297948 0.026066838 0.0043153483 0.024625719 0.018284552 0.017051399 -0.03377513
0.023888167 0.019782221 0.042838134 0.012336856 -0.028150257 0.039576113 -0.00965932 -0.030803436

encoder.2.0.convs.2.weight f4 [64]
00000000: 6b2a 803f dbaf 7e3f 0214 813f a90b 7e3f
00000010: a845 7c3f 97ae 7c3f 9068 823f a485 803f
00000020: 84e8 803f c46d 7e3f e043 7f3f 3bb5 7c3f
00000030: 9ad0 7c3f 8006 813f 513d 7e3f 6b43 7d3f
00000040: 81bb 7c3f f4ed 7a3f 6a49 7d3f b405 833f
00000050: 0b4d 813f 369d 7f3f 064e 7d3f f244 7b3f
00000060: ba38 813f d551 803f e266 7e3f 2018 7a3f
00000070: 1e7f 7b3f 5f37 7f3f 5cc0 7d3f 6e7c 7f3f
00000080: 2935 803f d966 7c3f 9d47 7f3f f429 803f
00000090: a04e 803f e19a 7f3f df9c 7c3f deaf 803f
000000a0: bf4b 813f 5673 7b3f e5eb 803f 953f 7d3f
000000b0: f93f 7c3f 5d78 7c3f df2e 803f a500 813f
000000c0: 4ce8 7d3f e116 7e3f 8db4 7c3f a14d 7e3f
000000d0: a1f1 7f3f dcf4 7d3f a3f5 813f 0ca5 7e3f
000000e0: 9e8c 803f 8d50 7f3f f09d 803f a548 7e3f
000000f0: 4a9d 803f a645 7e3f c15f 7e3f 0698 7a3f
1.0012945 0.99487084 1.0084231 0.9923654 0.98543787 0.987039 1.018816 1.0040784
1.0070958 0.9938624 0.99712944 0.98714036 0.987558 1.0080109 0.9931231 0.98930997
0.9872361 0.9801934 0.98940146 1.0236115 1.0101637 0.9984926 0.9894718 0.9815208
1.0095437 1.0024973 0.99375737 0.9769306 0.9824084 0.99693865 0.9912164 0.9979924
1.0016223 0.98594433 0.9971865 1.0012803 1.0023994 0.998457 0.98676866 1.005367
1.0101241 0.98222864 1.0071989 0.98925143 0.98535115 0.9862116 1.0014304 1.0078322
0.9918258 0.9925366 0.98713 0.993372 0.9997807 0.9920175 1.0153087 0.9947059
1.0042913 0.99732286 1.0048199 0.99329597 1.0048001 0.99325025 0.9936486 0.9788822

encoder.2.0.convs.2.bias f4 [64]
00000000: 59fa ea3b d2c8 3b3c bbc7 6f3c 42e3 273b
00000010: 50eb 843b 7451 25bc 6f7a b23c 1839 1e3c
00000020: 1524 603c 215d b6ba 13b8 debb e09f 3a3c
00000030: caf4 6a3c 2d8f 1d3c 0b1c bcbb f3bc 1abb
00000040: 3865 633c d6d7 33bc ffa6 433b e560 b33c
00000050: 2ec7 9c3c c45a 193c e89f a4bb 6267 9dbc
00000060: 09d0 ae3c cc90 413c 8fe3 043b f58b 643b
00000070: adcb 0abc 64a2 333c d037 473b 5368 433c
00000080: 02a6 de3b 190c a2bb 7d9e db3b 7e6d 363c
00000090: 2bb8 443c 90be 583c 2ba3 2f3c 23bc a63b
000000a0: a6ad b73c 80b9 0bbc 08bb 4b3c 0030 bf3b
000000b0: 1db8 59bc e4a7 38bc 609d 6b3c 8a1d cc3c
000000c0: 9830 613c 435d 5dba 4f1f 283b f99f 31bb
000000d0: 88d8 1f3c 5706 0ebc 0063 943c 70d6 6d3c
000000e0: aa46 1b3c 99e0 5d3c 22a1 413c 73f3 fd39
000000f0: 0f38 643c 1dd5 57bb b752 14bb c2ac 2b3b
0.007170957 0.0114614535 0.014635022 0.0025617634 0.0040563717 -0.010090221 0.021786897 0.009657167
0.013680478 -0.0013913253 -0.0067968457 0.011390656 0.014340589 0.009616655 -0.0057406477 -0.0023611158
0.013879113 -0.010976752 0.0029854176 0.021896789 0.019137945 0.009360019 -0.005023945 -0.019214336
0.021339433 0.011814307 0.0020277237 0.003487346 -0.008471412 0.01096401 0.0030398257 0.011926728
0.006794692 -0.00494529 0.006702243 0.011134503 0.0120068 0.013229027 0.010720055 0.0050883456
0.02242167 -0.008528113 0.012434728 0.0058345795 -0.013288525 -0.011270497 0.014380783 0.02491643
0.013744496 -0.0008444378 0.0025653427 -0.0027103408 0.009756215 -0.008668504 0.018113613 0.014516458
0.009477297 0.013542318 0.011818202 0.00048437304 0.013929381 -0.0032933422 -0.002263231 0.00261955

encoder.2.0.convs.2.running_mean f4 [64]
00000000: 8166 873e c4c5 e33e a028 1abe 1e1a 113e
00000010: fb9a 6dba b173 20bf 3fcd fe3d 68a7 dfbe
00000020: 0d52 803e 837c 37be 71ec a63e 8af1 e73b
00000030: 1933 5abe 4f7d 8abe 062d 0bbc 5d85 00be
00000040: 264f f73d 4039 70bd 3fd3 e63d 9728 39bd
00000050: 679c a23e 2c5c 913e 015b f0be 5a92 09bf
00000060: 0de0 813e 20f9 543e 5ae6 b0be b994 3cbf
00000070: 7b11 d9bd 93c9 a0be 6fef 173e 683e cebd
00000080: 5d79 39bd 9a25 8dbe d67a d2be 3383 b03d
00000090: 841a a13e bc3b ddbe 5617 ffbd 0501 4d3d
000000a0: 1f1f 3f3e e12a f0bd 352e 593e f98c 8f3e
000000b0: 2a5a 2fbe c695 9dbd 1ace a13e e8a7 acbd
000000c0: 9297 6b3e d8a2 f43d 012d a5be 96d3 47bf
000000d0: e879 593e f6fd a3be 4a35 01be 5e17 703e
000000e0: 3064 b0be 1d94 943e 6a02 8d3e 3c9e d6be
000000f0: 934f c1bd 9447 11bf 8824 823e e745 adbe
0.26445392 0.4448682 -0.1505456 0.14170119 -0.00090639264 -0.6267653 0.12441491 -0.43682408
0.250626 -0.17918591 0.32602265 0.0070783542 -0.21308555 -0.27048728 -0.008494621 -0.12550874
0.12075643 -0.058648348 0.11270761 -0.045204725 0.3175995 0.28390634 -0.4694443 -0.5373894
0.2536625 0.20798159 -0.34550744 -0.7366443 -0.10599037 -0.3140379 0.1483743 -0.10070497
-0.045281757 -0.2756775 -0.4110934 0.08618774 0.31465542 -0.43209636 -0.12455623 0.0500498
0.18664216 -0.117269285 0.21209033 0.2803724 -0.17124239 -0.07694583 0.31602556 -0.08430463
0.23007038 0.119451225 -0.32260898 -0.7805723 0.2123791 -0.32029694 -0.12617984 0.23446414
-0.34451437 0.2901925 0.27540904 -0.41917598 -0.09439006 -0.56749845 0.25418496 -0.33842394

encoder.2.0.convs.2.running_var f4 [64]
00000000: e0c6 9a3e 0152 fe3e 720d 5c3e b1d5 2b3e
00000010: 5e64 673e 6def f83e cbc6 963e 4b7e ec3e
00000020: af61 9a3e 9594 9c3e 5354 c23e 8508 a53e
00000030: 1d02 9c3e bc93 a33e 14c4 853e 1f7f ac3e
00000040: 89e4 893e 73b7 803e 8c2c ba3e 2ea4 6a3e
00000050: b087 663e 71f1 a13e 45d4 dc3e 973d 223f
00000060: 810e 783e d25c 843e 4326 b53e 9e86 2b3f
00000070: b9e8 903e 5d3f a13e 017a 433e 6914 3c3e
00000080: 2df5 313e b196 783e da7e 903e 02f6 583e
00000090: 3d13 bd3e 1bf4 d53e f715 9d3e b7a6 6b3e
000000a0: 5441 423e 78d0 5d3e 0f4a 943e 459d 8a3e
000000b0: 1850 473e a0d5 7e3e 37d7 953e ed30 9b3e
000000c0: fb26 8c3e 86ce 683e 693b b33e b797 293f
000000d0: d931 a13e 8f0f a23e f9b8 473e 9d2f 803e
000000e0: 09f3 c13e bc31 8d3e 728a 703e d6d1 ca3e
000000f0: bbc6 473e 74f8 0d3f f3a2 773e ebb4 793e
0.30229855 0.4967194 0.21489504 0.16780736 0.22596881 0.48620167 0.29448542 0.46190104
0.30152652 0.3058211 0.3795496 0.32233062 0.30470362 0.3194865 0.26126158 0.33690736
0.2693217 0.2513996 0.36362112 0.22914192 0.22512698 0.31629518 0.431307 0.6337523
0.24224283 0.25852066 0.35380754 0.67002285 0.28302553 0.31493655 0.1908951 0.18367161
0.17378683 0.24276234 0.2822178 0.21187595 0.3692874 0.417878 0.3068082 0.23012815
0.18970233 0.21661556 0.28962752 0.27073112 0.19464147 0.24886179 0.29265758 0.30310765
0.2737349 0.22735032 0.35006264 0.66247123 0.31483343 0.31652495 0.19504155 0.25036326
0.37880734 0.27577007 0.23490313 0.39613217 0.19509403 0.55457234 0.24183254 0.24385421

encoder.2.0.convs.5.weight f4 [64, 64, 1, 1]
00000000: 3ee1 023e 44c8 e83d 5a39 28bb a824 4d3d
00000010: d0ea c13d 42ba 6b3d e615 d3bd f2de 50bd
00000020: c9f7 523d cfa8 c53d 7062 833d dbb5 b1ba
00000030: a473 e03d 2812 923d 3dfb 963d 7963 c4bd
00000040: 37db 833c 2e2f ad3d f7d6 e43d 8a5e 95bd
00000050: dc6a b1bc 9cf9 cabd d1d4 07be 9345 31bd
00000060: adaf 863d 05e2 b83d 6064 a13d 8ae0 d53d
00000070: bb18 903d 02a0 863d bddf 27bd f229 d63d
00000080: bd87 ccbb ef9b 96bd b1e0 fd3d 410e a5bb
00000090: 8618 a8bd e8e6 a7bd 975a 6d3d 3fa8 a6bd
000000a0: c497 c33b f6e4 e03a 4661 783d a8b6 9b3c
000000b0: 5de4 af3d cf37 0abc 68e2 cdbc b06a a43c
000000c0: 6ca1 0d3d 3221 413d 73f7 3abd 39a2 4bbd
000000d0: f4ea 53bd 41d0 693d f2fc 893d d33c f6bd
000000e0: cd9b 623c 5047 f2bd ee5d f0bd 9e55 a1bd
000000f0: bbcc a6bd 9ef1 6c3d e382 953d 854b d1bd
00000100: 3f25 c93d 104e 93bd 72fb 4ebd f6ce 8d3d
00000110: 2216 c4bb d779 71bd 95f3 e33d 7ad8 8c3d
00000120: 006e acbd 1ffa a73d 4c31 6dbd 72ac b53d
00000130: 483c 2ebd e5a7 53bd f06a 113b 4a81 433d
00000140: 15b1 b63c f4f3 debd dc54 873d 7c76 e5bc
00000150: 0fa5 31bd c922 f03d 3dbf d7bc cff4 6fbd
00000160: 8a3a 953d 8b61 c9bd 1d32 f03d 5625 88bc
00000170: 37b7 cd3c 92e0 d83d bc76 d2bd 69b2 f7bd
00000180: 96d9 fe3d c16a 94bd 77ed c93d cf26 c0bd
00000190: c95e 993d aa43 1dbd 24f3 b43c 4442 b2bd
000001a0: fe44 f7bd 4c77 e2bd 84bc c4bd dae5 723c
000001b0: 1f75 a63c db18 60bd f9ef a13b 980f 4ebd
000001c0: 0ddc d4bd 3d83 703d ab8b cb3a 962d ecbd
000001d0: bdd0 353d c694 6abd 7b0c 9f3d 0044 41bd
000001e0: e2e6 8d3c 90c4 10bd 20b7 ed3d a63e e0bd
000001f0: dca9 d93c c894 9e3d 8e53 15bd cb17 e63d
00000200: 56b5 9ebd 78ae bebc baaf 9bbd 30d7 7bbd
00000210: 4bc6 f0bd b711 5a3d b162 83bd 6009 353d
00000220: e064 edba 6e66 753d 088e 083d 1996 473d
00000230: e707 06be d3d4 053d 068e 803d c47a 5a3d
00000240: 7b87 2cbd 45a9 413c 48c9 843d cf02 74bd
00000250: 330c efbd abdb edbd b125 b1bd 0d2e aebd
00000260: e005 323d 015d f93b 4199 a83d 8e7c ac3d
00000270: acbe 833c c68b 3b3d bf8a 4b3c 9b29 abbc
00000280: 05f1 15be 30da a2bd 74b3 87bd eed3 3a3d
00000290: c301 ee3d 315d 063c 5124 9fbd 514c 26bd
000002a0: 11b3 af3d 41af c7bb 30ee 7cbd 3f7b 4bbc
000002b0: f7eb cb3d 1323 923d a851 e23d 524c 7d3d
000002c0: d2bf 163d 149e 64bd d32e 5c3b 962e eabd
000002d0: bf13 013e 1868 3b3d c830 adbd b93c bfbd
000002e0: 1b09 a4bd 0490 0bbd d931 6bbd 918e 96bd
000002f0: d5a4 363c 5d3c d7bd 5ed4 c43b 663b 07be
00000300: 22b1 5dbd 867d 1abd a1d1 4abd be28 bc3c
00000310: 7875 223d ada5 8abd f5c1 8abd 10d2 1c3d
00000320: 015b f0bd 5c7f dbbc 84e9 413d d63f b53d
00000330: 487d ed3d a5ff 83bc 8713 493d 31d3 a0bd
00000340: aade e6bc 70ac ccbd 3757 eebd a97e 9f3d
00000350: 967f 7fbd bd56 3bbd 771b b63c f786 d03d
00000360: 46eb a2bd 70fe 8ebb 104a 9cbd ac38 283d
00000370: 0bdb cc3c 018f be3d 42be 9d3d e0f1 0abc
00000380: fa49 efbd 30ac ac3c 9fcb d7bc ecd4 a5bd
00000390: fd1b f6bd ffa7 17bd d3b8 0b3d c6c6 083e
000003a0: 3643 f43c c461 123d 37e6 82bd ba41 c4bd
000003b0: 9506 84bd f680 bf3c 29a5 e93d 21e2 acbc
000003c0: 8397 863d 76ac 8ebc d51d 1cbd b749 73bc
000003d0: 4b26 0bbe 4de8 19bc 0407 b63d cb72 853d
000003e0: 2167 cebd e3c4 003d 9c31 e93d 2185 013e
000003f0: c132 dcbc 548e 3bbd a25a f1bd 9bde 303c
0.12781236 0.11366323 -0.002566895 0.050083786 0.09468615 0.057550676 -0.10306911 -0.050993867
0.051505838 0.09651338 0.0641526 -0.0013558225 0.10959557 0.07132369 0.07372139 -0.095892854
0.01609574 0.084562644 0.11173814 -0.072934225 -0.0216574 -0.099108905 -0.13264777 -0.04327924
0.06576476 0.09027485 0.07880473 0.10443218 0.07035967 0.06573488 -0.040984858 0.10457219
-0.006241767 -0.07353961 0.12396372 -0.0050370996 -0.082078025 -0.08198339 0.05794772 -0.08137559
0.0059690196 0.001715808 0.060639642 0.019007996 0.08588479 -0.008436157 -0.025132373 0.020070404
0.034577772 0.0471508 -0.045646142 -0.049715254 -0.05173774 0.057083372 0.067376986 -0.1202332
0.013831091 -0.11830008 -0.11736666 -0.07877658 -0.08144518 0.05784761 0.07300355 -0.10219482
0.09821557 -0.071926236 -0.050532766 0.0692424 -0.0059840837 -0.058954086 0.11130444 0.06877227
-0.08419418 0.08202004 -0.05790834 0.08870782 -0.042537957 -0.05167379 0.0022188984 0.04773072
0.022301236 -0.10886374 0.066079825 -0.0280106 -0.043370303 0.11725385 -0.026336307 -0.058583077
0.07286556 -0.09833058 0.11728308 -0.016619366 0.025111778 0.105897084 -0.10276553 -0.12094576
0.12443845 -0.07246924 0.09859746 -0.09382402 0.07488782 -0.038394608 0.022088595 -0.087040454
-0.12073706 -0.1105791 -0.09606269 0.014825309 0.02031952 -0.054711204 0.004941937 -0.05030784
-0.10393534 0.05871891 0.0015529295 -0.11532132 0.04438852 -0.057270788 0.07766052 -0.04718399
0.017322008 -0.035343707 0.11607194 -0.10949449 0.026570253 0.077432215 -0.036456637 0.11235007
-0.07749431 -0.023276553 -0.076018766 -0.061484516 -0.117565714 0.05323955 -0.06415308 0.044198394
-0.0018111728 0.059912138 0.033338577 0.04872713 -0.13088952 0.032673668 0.06277089 0.053339735
-0.04212139 0.011820142 0.06483704 -0.05957299 -0.11672249 -0.11614164 -0.08649767 -0.08504877
0.043462634 0.007609964 0.08232356 0.084221944 0.01608213 0.045787595 0.012423216 -0.020893862
-0.14642723 -0.07951772 -0.06626025 0.04561227 0.1162143 0.0082009295 -0.07770599 -0.040600125
0.08579076 -0.00609389 -0.06175059 -0.012419521 0.09957116 0.07135596 0.11050731 0.061840363
0.036804028 -0.055814818 0.0033597245 -0.11434667 0.12605189 0.04575357 -0.0845657 -0.09337754
-0.08009549 -0.03407289 -0.057420585 -0.07351411 0.011147697 -0.1050956 0.0060067615 -0.13206252
-0.054124005 -0.037717365 -0.049516324 0.022968646 0.03966281 -0.067698814 -0.067752756 0.03828627
-0.117361076 -0.026794128 0.04734184 0.08850066 0.11596161 -0.016113112 0.04909089 -0.078527816
-0.028182346 -0.09993827 -0.11637729 0.077878304 -0.062377535 -0.045737017 0.022229893 0.101819925
-0.07955031 -0.0043638274 -0.07631314 0.04106967 0.025006792 0.093046196 0.077023044 -0.008480519
-0.11684032 0.0210782 -0.026342211 -0.08097252 -0.12017057 -0.037025448 0.03411181 0.13357076
0.029817205 0.035737768 -0.06391566 -0.09582849 -0.06446568 0.023376923 0.11408455 -0.02110392
0.06571867 -0.01741622 -0.038114388 -0.014849118 -0.13588826 -0.009393764 0.08888057 0.06516036
-0.10078264 0.031437766 0.11386415 0.12648441 -0.02687967 -0.04579003 -0.11784865 0.010795261

encoder.2.0.convs.5.bias f4 [64]
00000000: 5c70 833a dd70 c43c 0117 a83d c5f7 ccbc
00000010: c511 313d b1da 4cbd 8350 f43c 817f 0f3d
00000020: cbfe ed3d bf28 86bb 40f9 203c b67d fbbb
00000030: fcac d33d f49f 8b3d c0dc 043c 1735 c33b
00000040: de60 79bc 09e2 0bbc 3dc4 fbbd 8b54 8ebd
00000050: 043c 823d 388d 4d3d 1595 ca3d c0a3 c4bd
00000060: e779 eb3d 168b a1bd 1a2f 64bb 8500 e03d
00000070: bee8 ae3c f966 81bd cf0c ac3d 0a25 26bc
00000080: b172 d43d 90dd 693c 6e54 4a3d 3440 20bd
00000090: 4503 debd 635d 943d a218 d43d c723 b43c
000000a0: 2298 d23d a3d3 b03d a2e1 a73c 401a 963b
000000b0: 19b3 69bc ee0f 81bc 6daa 7abd 6f13 fd3d
000000c0: 8555 ef3d 30e0 8ebd 0ff9 81bd e84f a43d
000000d0: 6bcc c8bd e94b 623d 4399 cebd bfc5 7abd
000000e0: 7f48 68bd f7b4 b0bd e896 203d 3911 d83c
000000f0: 1f93 74bd 2540 f93c cffb bf3d eae6 96bd
0.0010027993 0.023979599 0.08207513 -0.02502049 0.043229837 -0.050013248 0.029823547 0.035033707
0.116208635 -0.004094213 0.009825051 -0.007674898 0.103357285 0.06817618 0.0081092715 0.0059572565
-0.015220849 -0.008537778 -0.12293289 -0.06949719 0.06359103 0.050183505 0.098917164 -0.09601545
0.114978604 -0.07887857 -0.0034818114 0.10937599 0.021351214 -0.063184686 0.084008805 -0.010140667
0.10373438 0.014274016 0.049396925 -0.03912373 -0.10840467 0.072443746 0.10356261 0.021989716
0.10282923 0.086341165 0.020493332 0.004580766 -0.014263892 -0.015754666 -0.061197687 0.12357222
0.116862334 -0.06976354 -0.06346332 0.080230534 -0.09804615 0.055248175 -0.10087826 -0.06122374
-0.056709763 -0.08628266 0.039206415 0.0263754 -0.059710618 0.030426094 0.093742006 -0.07368262
